models/conv_model.pth (torch, 22125 bytes, 5 tensors)

conv_0.weight f4 [1, 1, 3, 3]
00000000: d13a 13bd 11b2 bebe 805c c43e e796 1d3f
00000010: fde8 d63e d5ce 4d3f 7ac0 493f f2fb fbbd
00000020: 0308 bb3b
-0.035944764 -0.3724523 0.38351822 0.61558384 0.4197463 0.80393726 0.7880932 -0.12303914
0.005707742

conv_1.weight f4 [1, 1, 3, 3]
00000000: be75 2d3f 3962 a13d 5b22 463f a358 233e
00000010: 7cd1 b1bd 6023 8d3e 8f8a 06be befd 9ebd
00000020: 5f32 a83e
0.67757785 0.078800626 0.7739617 0.15951781 -0.08682534 0.2756605 -0.13138793 -0.07763241
0.3285093

conv_2.weight f4 [1, 1, 3, 3]
00000000: 952e 12bf ecd6 00bf 5d4c 8fbe 7c9a 843d
00000010: 6e2b adbe b29c 93be 9864 bc3d 28e2 fb3e
00000020: 008e 0f3f
-0.5710233 -0.50327945 -0.27987948 0.06474778 -0.33822197 -0.28830487 0.09198874 0.4919598
0.5607605

dense_0.weight f4 [10, 484]
00000000: 8c20 483e bb60 603e d1a7 6b3e 5560 2e3e
00000010: 28ad 1d3e 9e35 0a3e 38c7 ab3d 7c30 da3d
00000020: 9d81 c73d f8e4 1d3e fd34 0e3e abd8 c83d
00000030: 019a f93c 61ad 7e3d 5026 26bc 0fa5 8bbd
00000040: 2843 0fbd b1bc 943c c3ed a63d a448 6d3c
00000050: 7d02 3d3d f713 1a3e 9a55 863e 33e3 523e
00000060: 09fa 1b3e 1e38 ec3d 82de 273d d142 8fbd
00000070: 03d7 32bc 4110 e9bb 6105 c03c 7d6d 56bc
00000080: c77a 053d 5b01 203d 5868 c1bc c2a0 13bd
00000090: f0e9 b6bd 8edc 6cbc 058e 793d a9c8 403e
000000a0: 02ef 2b3e 6c9e e53d 3db5 403d def3 273d
000000b0: 714d 6b3e 88ac 5b3e 79d3 fa3d 893f 4d3c
000000c0: 733b 3fba 5bf9 11bd daa7 29bd e73c 83bd
000000d0: 00a6 14bd 804f c73c d140 e43d c738 323e
000000e0: 6b5a 9b3d 20c4 843d a8fc bdbd d86f 27bd
000000f0: f67e 403d 9697 3c3d 5f2e e63d 3df0 c63d
00000100: f98e 293e b31e f73d d494 3f3e 973a 283e
00000110: ae32 c23d bd08 7e3d b84a da3c 63ac 6bbd
00000120: a7fd a0ba ee25 87bd 25e8 5abd 6693 3bbd
00000130: 6f1f 90bc 5d19 08bd 5b33 4b3d 247f 163d
00000140: 94f8 ddbc 49f8 e3bd 16cf c5bd 359f 0fbe
00000150: 54e7 c6bb 819d 023e ec57 823e 7f33 913e
00000160: 3bf1 363e 7117 4a3e bd37 d83d a4e0 e13d
00000170: 9ec3 cb3d dd1f f53c 3c90 b53d 3434 ca3c
00000180: 3dc0 efbd 92dd 56be 5ea9 eebd d70d 9bbd
00000190: 9658 48bd fa18 3ebd f39e b2bd 7f0c 93bd
000001a0: 0616 cebd 5513 4fbd 5e51 50bc 9946 c53d
000001b0: 399b 323e 6337 f43d ff9a 8b3e cca6 713e
000001c0: 0e7f e53d 5c82 833d e8dc d53d 3109 8f3d
000001d0: c1b8 cf3c ecd8 12bd 77ef 0abe c95f b1bd
000001e0: 597e 303d d955 633d b20e 48bd 90d2 b13b
000001f0: 4b8a dfbc 1710 33bc 5f91 29be e15d 31be
00000200: 5268 48bd 32c0 9e3d a346 df3d 1534 1b3e
00000210: 5b88 663e ee89 0b3e 5762 353d dea0 8dbb
00000220: 6042 273d e779 45bd bc33 023d 8f5d 0a3d
00000230: 9044 943d 4b73 84bc 9875 d5bd 7c69 25be
00000240: 876c 44be 2068 b93a 58ff 2fbe 6382 a2be
00000250: ccbb 76be b2dd 64bd 4da7 013e dab3 083e
00000260: 2055 9b3d cc03 c43d 4d18 293e 2260 6f3d
00000270: 1417 cabc c153 86bd da0c 99bd a84b e23b
00000280: 9a26 9c3d 4c90 aa3d 88f1 1b3e 3666 68bd
00000290: 0e42 a9be a63e c7be ff56 73be 2e9e d5bd
000002a0: 32eb 30be 56e1 9abe 7266 34be ea10 6cbe
000002b0: 13b9 2ebe 1901 d4bd caaf 87bd 91f7 723d
000002c0: ec9f 653e 2fb7 313e 5d67 da3c 77e8 11bd
000002d0: 6120 91bd 2242 3dbd e683 82bd 5c83 12be
000002e0: 2831 3cbe 0677 4abe 7398 07bf efda 28bf
000002f0: 48a0 f9be aece b5be c1d5 51be 12ef d2be
00000300: 15e8 bfbe 7831 0cbe 3f27 48bd 6ce0 7c3c
00000310: 97e3 c13d aca5 963d 7407 a63e d3c9 783e
00000320: c621 aebc 54cd 49bd 9151 f03c 5e2a ec3d
00000330: 00a1 c53d 6119 17be cc0b 9bbe 68f6 81be
00000340: a43e 02be b13c 50be e8ed 52be 7614 89be
00000350: 93d1 92be 25ce 4fbe 2f4a 5fbe 9c81 f8be
00000360: fdf5 f3be 71c5 febc d8be 7c3d 8a77 173d
00000370: 520d aa3e eb12 5a3d 563c 0abe 3d71 23bd
00000380: 4523 903d ee28 993d 84b7 0d3d b3da 85be
00000390: 316e 07bf 7050 9ebe 8aca 3dbe 1b5a a4bd
000003a0: 7863 75be 261a 49be f649 68be 80fc 64bd
000003b0: 7083 68be faa3 06bf 47b4 66bf 4ca0 37bf
000003c0: 026e cdbe 564d a9be 1cb9 5f3e 16ac 98bd
000003d0: a1fa 8ebe 37ff 54be eb32 e5bd c248 d3bd
000003e0: caa6 ccbc cb2a 07bf 08c5 a2be 441c 8c3b
000003f0: cecf 95be fc0a d5be 17cd 763d 62da 86bd
0.19543666 0.219119 0.23013236 0.17028935 0.15398085 0.13497016 0.08387607 0.10653779
0.09741519 0.15419376 0.13887401 0.09806951 0.030468943 0.062177066 -0.01014097 -0.06818592
-0.034976155 0.018156381 0.08150818 0.014482651 0.04614495 0.15046678 0.26237184 0.20594482
0.152321 0.11534141 0.040983684 -0.06995166 -0.010915521 -0.0071125333 0.023440065 -0.0130876275
0.032587793 0.039063793 -0.023609325 -0.036041982 -0.08931339 -0.014456881 0.060926456 0.18826546
0.16790393 0.11211857 0.047047842 0.041004054 0.2297876 0.21452534 0.122473665 0.012527355
-0.00072949304 -0.035638195 -0.04141984 -0.064081006 -0.036291122 0.0243299 0.11145175 0.17404471
0.07585605 0.064827204 -0.09276706 -0.040878147 0.04699608 0.046043 0.11239313 0.097137906
0.16558446 0.12066402 0.18709117 0.164286 0.09482323 0.062020052 0.026646957 -0.057537448
-0.0012282626 -0.065990314 -0.053444047 -0.045794867 -0.017593114 -0.033227313 0.049609523 0.036742344
-0.02709607 -0.11131341 -0.09658639 -0.14025576 -0.006070057 0.12755395 0.25457704 0.283596
0.1786546 0.19735505 0.10557506 0.11029175 0.099494204 0.02992242 0.08865401 0.024683096
-0.117065884 -0.2098296 -0.11653398 -0.07570999 -0.048912607 -0.04641054 -0.087217234 -0.07180118
-0.100627944 -0.050555546 -0.012714712 0.09632606 0.17442025 0.11924627 0.2726669 0.23598784
0.112058744 0.064213485 0.10442525 0.06984175 0.025356652 -0.035851404 -0.13567911 -0.08660848
0.043089245 0.055501793 -0.04884214 0.0054267123 -0.027287623 -0.010929129 -0.16559361 -0.17320968
-0.048927613 0.07751502 0.10902145 0.15156586 0.22512953 0.13626835 0.044283237 -0.0043221554
0.040834785 -0.04821196 0.03178762 0.03378063 0.0723964 -0.016168257 -0.1042282 -0.1615352
-0.19182025 0.0014145412 -0.1718725 -0.31740102 -0.24095076 -0.055875488 0.12661476 0.13349858
0.07584596 0.09571037 0.16513176 0.05844129 -0.024669208 -0.065589435 -0.07473154 0.0069059916
0.0762455 0.08328304 0.15228856 -0.0567381 -0.33058208 -0.38914984 -0.23763655 -0.10430561
-0.1727722 -0.30250043 -0.17617205 -0.23053327 -0.17062788 -0.10351772 -0.06625326 0.05931813
0.22424287 0.17355035 0.026660616 -0.035622086 -0.07086254 -0.046205647 -0.06372814 -0.14307922
-0.18378127 -0.19771966 -0.52966994 -0.65959066 -0.48755097 -0.35509247 -0.20491697 -0.4119802
-0.37481752 -0.13690746 -0.048865553 0.015434366 0.094672374 0.07355818 0.3242756 0.2429574
-0.021256339 -0.04926808 0.029335769 0.115315184 0.09649849 -0.14755775 -0.30282438 -0.25383306
-0.12719208 -0.20335652 -0.20598567 -0.26773423 -0.28675517 -0.20293482 -0.21805643 -0.48536384
-0.47648612 -0.031100007 0.06170544 0.036979236 0.33213288 0.053240698 -0.13499579 -0.039902914
0.07037977 0.0747851 0.034598842 -0.26143417 -0.52902514 -0.30920744 -0.18534294 -0.08024999
-0.23963726 -0.19638881 -0.22684464 -0.055904865 -0.2270639 -0.5259396 -0.9011883 -0.7172897
-0.40122992 -0.33066815 0.21847957 -0.07454698 -0.2792559 -0.20800482 -0.111913525 -0.10316612
-0.024981875 -0.5279967 -0.31790948 0.0042758305 -0.29260105 -0.41609943 0.060254183 -0.06584622

dense_0.bias f4 [10]
00000000: 9686 843e f51e 9f3d ce39 8abe 68b0 8dbe
00000010: 1c6d be3e 8657 f2be 86c1 bd3e 718d 01be
00000020: 63a5 183e 9e97 d53d
0.2588393 0.077695765 -0.26997226 -0.2767365 0.3719262 -0.473324 0.3706171 -0.12651612
0.1490684 0.10429309
