models/fc_model.pth (torch, 973785 bytes, 8 tensors)

dense_0.weight f4 [256, 784]
00000000: f833 0b00 4fce 0b00 c7d0 0500 a8d6 0200
00000010: ff22 1580 8668 0180 4567 0780 0e6b 1500
00000020: c2de 0580 f197 0580 0ca5 0b00 e328 0a00
00000030: f480 3e08 ba47 840a a429 b28a fe35 f406
00000040: 6730 1180 2f8b 1480 7aa6 0d80 6adb 0800
00000050: 7e96 0300 3078 0500 4f59 0b80 36c3 1000
00000060: 81ca 0600 3f2a 0900 1881 0400 df4b 0680
00000070: ceeb 1000 1c22 0b80 93d9 0f80 a85e 0d80
00000080: 5764 0a80 2a67 0300 d466 1580 7776 6711
00000090: c8fb 9393 79b8 b0a5 37e8 8c27 9c0c cda5
000000a0: f5cd 2dbb c99d 40ba 11c8 8eba 0433 2bbc
000000b0: e37f 9035 b896 aca2 9102 6599 2c02 0800
000000c0: 0292 0980 a755 0980 e656 0000 a41b 0680
000000d0: 92b3 0700 e3e5 0900 7f7e 1000 42f6 0c00
000000e0: e1c0 1280 7a0b 1580 519c 0480 a0cb 0d00
000000f0: f340 0300 088a 1480 0d82 e319 8009 d799
00000100: 295d 703a 4fb9 c23b e9fe 2f3c 387d 293c
00000110: 5759 09ba 63a6 e63b 0615 61ba b733 b5bc
00000120: d6bd 08bd a799 58bc 7e77 af3c 3523 92ba
00000130: f6e4 d53c a58a eb3c fde0 3d3c eeb3 4f1e
00000140: 1690 0580 84ed 0f80 744a 0e80 5e36 0680
00000150: cde0 0300 e4a8 0e00 d686 0200 46cf 0500
00000160: 3707 1a00 73e3 8f3c ed8f 913c 293a 533c
00000170: 938e 863b 9bd5 763d f6a6 b93d d3dd ed3d
00000180: ef95 8bbb 1648 f8bd 9727 2cbe 80ec 14be
00000190: da10 09be ac19 10bd b945 b13d 30c6 633d
000001a0: a09e ab3b f9f4 433c edd2 b93c 740d 3b3c
000001b0: ae09 6b3b 317a 809c 1460 c699 22dd 1200
000001c0: 8ce6 0a00 6db4 e08f e463 801d 4a31 cc1c
000001d0: e8c7 3ca9 8695 1a38 0fc4 0bb8 c82c e538
000001e0: 6686 ba3b ca16 bb3d 93fd 233e 9b0c 433e
000001f0: a64d 433d 4076 4d3d 6ac5 fcbb a929 fabc
00000200: 1652 5c3b f059 583d 7c43 da3d 4aa4 a13c
00000210: ac95 5fbd 203f 2f3c 5c93 463c 3590 8abd
00000220: cf73 66bc e626 233a fc86 e132 25f1 c5ad
00000230: aaa7 0100 7c11 0c80 e2fb 9936 681e 8035
00000240: e5fa 5736 b3ba 9dbc 3a1f 94bd b079 ccbd
00000250: 37b7 94be 5338 78be c523 22bd a2f4 9abc
00000260: d741 6e3e 7150 293e 5caa e93c b9f2 243e
00000270: 1dcb fd3d 1747 b23d 21a5 863d 7837 2bbd
00000280: 8e25 a9bd 9953 f5bc 546b a63d 216e 4dbd
00000290: 746e 68bd ab4e aa3a 6d5d 9cb8 9e87 dcb2
000002a0: c1aa 1000 dea6 bf35 1424 4038 f63f 0435
000002b0: c47c dd38 a752 cbbd 6e2b 4dbe 8f58 4bbe
000002c0: 1bad abbe 108e dfbd cd0c 2e3d 48db f83d
000002d0: 81b1 463e c929 3c3e b7bc ea3d caee 613e
000002e0: 1117 f33d 2be1 c1bb 7dec c63d 0db6 5fbd
000002f0: a1f9 d8bd b232 9dbd 3e1b 0e3e ba71 93bc
00000300: 7f08 d5bd e985 8ebc 4cb9 059c 1c11 0100
00000310: 1d2d 1180 7d80 163c c0c1 1b38 75b6 acaa
00000320: 591f cb3c 9924 2dbe bd3d 8bbe f505 89be
00000330: d35c 32bc 416c 0c3d 18ac f63d 25db 233e
00000340: 0d6f f53c 37c6 803d e3be 363d 843c 20bd
00000350: db96 0abc e916 b0bd 6eee 85bc f5ad d3bc
00000360: 891d acbd 0813 823d 758c d03d 4a21 d1bd
00000370: 478a 1abe 9fb1 0abd 2e4f 44b9 647d 0480
00000380: 641b 1280 3b7a 35b8 db5b 071a 9e02 373c
00000390: c2a5 6e3d 4f84 10be 1293 20be 0c3c 46bc
000003a0: a3d9 a93d 5062 f63d 9c12 6b3e 1afa 723d
000003b0: 872a 1ebe a0d6 5dbe d663 92bd 30ef 64be
000003c0: efa0 27be 3601 a3bd 443e 9cbc 93a9 933c
000003d0: 8bab 64bd 1fc1 cb3d b052 4c3e df8d a5bd
000003e0: 212f 34be 5252 81bc 7ec5 a239 0e34 1000
000003f0: 13fb 0880 bd3a 0880 51ee 0423 589d c93c
1.028833e-39 1.0842e-39 5.34073e-40 2.60675e-40 -1.9411e-39 -1.29331e-40 -6.79895e-40 1.96695e-39
-5.39088e-40 -5.13684e-40 1.069398e-39 9.33022e-40 5.732763e-34 1.2738118e-32 -1.715644e-32 9.1861933e-35
-1.578567e-39 -1.88664e-39 -1.253582e-39 8.13395e-40 3.29493e-40 5.02293e-40 -1.042228e-39 1.539396e-39
6.23658e-40 8.41675e-40 4.13652e-40 -5.7823e-40 1.553959e-39 -1.022427e-39 -1.455583e-39 -1.227818e-39
-9.5435e-40 3.12515e-40 -1.965433e-39 1.8259192e-28 -3.7356292e-27 -3.0656137e-16 3.9109574e-15 -3.5570376e-16
-0.0026520465 -0.00073477306 -0.0010893365 -0.010449175 1.0766056e-06 -4.6780273e-18 -1.1839541e-23 7.35463e-40
-8.78897e-40 -8.57246e-40 3.1173e-41 -5.60929e-40 7.07266e-40 9.08987e-40 1.514746e-39 1.190367e-39
-1.722231e-39 -1.932662e-39 -4.23418e-40 1.266908e-39 2.98806e-40 -1.886226e-39 2.3523777e-23 -2.2234316e-23
0.00091691554 0.0059425007 0.010741928 0.010344796 -0.0005239448 0.007038878 -0.00085862016 -0.022119386
-0.033384167 -0.013220227 0.021419283 -0.0011149409 0.026110154 0.028752634 0.011589286 1.0995697e-20
-5.10866e-40 -1.462737e-39 -1.312406e-39 -5.70516e-40 3.5615e-40 1.346283e-39 2.32041e-40 5.33533e-40
2.390311e-39 0.01756451 0.017768824 0.012892284 0.0041063516 0.060262304 0.090650484 0.11614575
-0.004259817 -0.12123124 -0.16811977 -0.14543343 -0.13385335 -0.035180733 0.08655877 0.05560893
0.0052374154 0.0119602615 0.022683585 0.011416782 0.0035863924 -8.501915e-22 -2.0511526e-23 1.732366e-39
1.00106e-39 -2.2157603e-29 3.3984602e-21 1.3512329e-21 -4.1917777e-14 3.6855716e-05 -3.3322776e-05 0.00010927912
0.005692291 0.09135206 0.160147 0.19047777 0.047681473 0.0501616 -0.0077139633 -0.030537443
0.0033618263 0.052820146 0.10657403 0.01973166 -0.054586098 0.0106962025 0.012120094 -0.067657866
-0.014065697 0.0006223753 2.6254831e-08 -2.2503397e-11 1.51982e-40 -1.108298e-39 4.5890783e-06 9.545593e-07
3.2183536e-06 -0.019254064 -0.072325185 -0.099841475 -0.29046032 -0.24240236 -0.039584894 -0.018915478
0.23267303 0.16534592 0.028523616 0.16108216 0.123922564 0.087049656 0.065744646 -0.041800946
-0.08259116 -0.029947089 0.0812594 -0.050153855 -0.05674596 0.0012993416 -7.4560616e-05 -2.5673042e-08
1.530623e-39 1.4279174e-06 4.5809968e-05 4.926691e-07 0.000105613406 -0.09927874 -0.20036098 -0.19858001
-0.33530506 -0.10915768 0.042492677 0.121511996 0.1940365 0.18375315 0.11461776 0.22063747
0.11869634 -0.0059167347 0.09713075 -0.054616977 -0.10594488 -0.07675685 0.1387758 -0.017998565
-0.10402011 -0.017397838 -4.42455e-22 9.7973e-41 -1.577387e-39 0.009185907 3.7135324e-05 -3.0679943e-13
0.024795221 -0.16908492 -0.2719554 -0.26762357 -0.010886389 0.034282926 0.12044543 0.16001566
0.02996018 0.062878065 0.044615638 -0.039120212 -0.008458818 -0.0859812 -0.016349044 -0.025839785
-0.08404071 0.06351286 0.1018304 -0.102114275 -0.15091811 -0.0338608 -0.00018721513 -4.12324e-40
-1.662865e-39 -4.32676e-05 2.7991546e-23 0.011170058 0.058263548 -0.14112972 -0.15681103 -0.012099277
0.08293464 0.1203047 0.22956318 0.059320547 -0.1544591 -0.21663904 -0.071479484 -0.22356868
-0.16369985 -0.07959215 -0.01907266 0.018025195 -0.05582766 0.09948944 0.19953418 -0.080837004
-0.17596103 -0.015786324 0.0003104619 1.488042e-39 -8.24752e-40 -7.55755e-40 7.2062e-18 0.02461116

dense_0.bias f4 [256]
00000000: 2a04 23bd 98c2 babd d01a d2bc a5d4 81bd
00000010: 23f3 99b5 eca0 b4bc d7d1 643c b5ad 863b
00000020: 453e 88bd f70f 0fbe 6639 763c 9798 973c
00000030: fdec 6f3d f475 5cbd a84d e0bd 62ca d13d
00000040: 4c60 e13d d27d 94bd 519c e53d e83b 4abd
00000050: 7d85 26bc 8b2b 12be 6c41 a43d 1257 96bd
00000060: 66db 533d ed95 f13d 5492 a83c 3cb1 7fbd
00000070: 3c02 0f3c 3a80 153e f14e e1ba 9ed3 0a3d
00000080: 7aad 27bd 0d0e 96bd e77e 39bc 4483 f1bd
00000090: 5bf3 15bd 29d7 05be 8bf9 733d 13e1 e43d
000000a0: 7c0b afbd a197 1b3e 88ad debe 1ee8 05b6
000000b0: 7f2e 94bd 9fee 0fbe 6835 353e 3de2 033d
000000c0: 7a4b ebbb d719 e0bc 6296 80bc 1fa8 8b3d
000000d0: e9a1 ccbb 7eb0 6bba 2a09 8fbd 41b7 2e3d
000000e0: e8e5 3abd 8fb6 7f3d 8f8c d6bb 91d2 a6be
000000f0: 7875 c03d 7d89 4dbb 6ac1 1dbe eefc 28be
00000100: 9ffd 933d 8cac 5fbd 3489 173e f9b0 a7bc
00000110: 675f 3cb4 f789 be3c 5b93 a13b 416b 643e
00000120: d75b 41bd d4be 463d e84e 6abe 604b 8c3d
00000130: 0379 e4bd f263 b23d f0ad c4bd d145 853c
00000140: 8991 053c 8afa 57bc b109 433d 0eed 0dbe
00000150: f289 2ebd 1531 19bd c224 41bd d4e9 c7bc
00000160: 40b3 9cbd 2685 64bc fb38 e3bc f916 893c
00000170: 29fa 7fa7 d816 43bd 6d80 febc 7af4 7fbc
00000180: 31b0 9a3d 6fba 03be 2893 8dbc b786 86bd
00000190: 7e70 53bb b63b 63bd 738b ec3d 399d 14be
000001a0: 7567 91bd 40b9 63bd 0460 a9bd da0a 643d
000001b0: afe8 983d 8494 023e 357e e63c f182 6e3b
000001c0: eb2b 7a3d 81f6 d53d ecc1 3a3c 229f ca3d
000001d0: 2548 d5bd 0e06 de3d 272e 32be 1a2c 2cbd
000001e0: ed92 0abd 04f0 86bc a7e3 acbd 3750 e4bd
000001f0: 84f9 e33d 7a82 d8bc 4cd2 b9bc 9a52 6d3e
00000200: cdad b03d 5254 36be b0f3 4a3d 0cde 8d3c
00000210: 4e0a 35bd ed4e a43b d5fc a6bd 82c2 ce3d
00000220: 7f65 233e ad14 97bd 9914 043d c849 d03c
00000230: 4854 ec3c 87f7 4fbd 3683 95bd 388f 53bd
00000240: 8c32 22be f32a 68bd da27 06be 8bb7 f53d
00000250: 3dbb ef3d 17c3 f9bb 1ae8 21be d4f9 13be
00000260: 3e3f 7dbd aaaf 343d 8a9f 96bd a4c4 50be
00000270: 75dd 123e 7559 743d 3cd4 4e3d 10c1 563d
00000280: 13fd 2abd 0b43 37bd cd92 bdbd 736b 35be
00000290: af55 0b3d 2174 1fbd 23d1 7bbd b058 babc
000002a0: c480 98bd be71 c5bc 0092 8dbd 2c39 d7bc
000002b0: 6a92 45b7 e2a0 08be 3fff 25be d0d4 b83d
000002c0: 30b7 58bd 80d4 2d3d da17 08bd 8930 4c3c
000002d0: dc8c 33bd a8c3 8fbc 4a42 66bd 3a93 abbd
000002e0: acbf 223e 957e d13c cead 023d 6451 b13c
000002f0: 159c a7bc 4215 9fbd 8c04 18bb 5ebc 4abd
00000300: 249b f1bd b3dc 01be f889 0ebe a4b5 d0bd
00000310: d52a 11af d2fb c9bc 623f 193d 58a0 443a
00000320: 2847 2d3e f1f7 1ebd 48bf c0bb d0b2 1b3e
00000330: 9658 2b3e ad6f e4bd 583b 13bd c6cc aebb
00000340: 75f6 f53d 094f b73c 32f7 08bd 3da3 9fbc
00000350: 370e 80bd bd51 a83d 2945 0bbe 1f54 c8bd
00000360: b383 05be cc28 9f3c f785 38bd 81b0 263d
00000370: af21 4ebc 5c64 b9bd f4bd 25bc 059f 9e3d
00000380: 23de 12bd 070e b03d 9330 59b9 b931 11be
00000390: d967 42bd f1c5 6fbe e225 dbbd 6ea4 14bd
000003a0: 1237 e5bb e58f f3bd 6042 2cb3 8797 b9bd
000003b0: ba7c 9d3c 8f56 573d deee 4cbb acce 24b7
000003c0: 3c90 073c c12a 19be 50a9 633c b0a1 74bb
000003d0: 7577 81aa 4395 2cbd adb8 613d 8961 79bb
000003e0: a6e1 3abc 6caa 39be d39c 893b bf4a b1bc
000003f0: 616b cd3d c4a3 5cbd baeb 353d 1c27 463d
-0.039798893 -0.09119147 -0.02564755 -0.06339387 -1.147015e-06 -0.02204939 0.013966045 0.004110063
-0.06652502 -0.13970934 0.015028333 0.018505378 0.05857562 -0.053823426 -0.10952312 0.102436796
0.11004695 -0.07250561 0.112114556 -0.049373537 -0.010163662 -0.14274423 0.08020291 -0.07340826
0.051722907 0.11796174 0.020577587 -0.062424883 0.00872856 0.14599696 -0.0017189664 0.03389322
-0.040936925 -0.07326899 -0.01132176 -0.11792615 -0.036609035 -0.13070358 0.059564155 0.11175742
-0.08547112 0.1519456 -0.4349177 -1.9953654e-06 -0.07235431 -0.1405587 0.17696154 0.03219818
-0.0071806284 -0.027356071 -0.015696708 0.06819176 -0.006244887 -0.0008990838 -0.0698417 0.042655233
-0.045629412 0.06242996 -0.0065475176 -0.32582524 0.093974054 -0.0031362467 -0.15405813 -0.16502735
0.07226109 -0.054607913 0.14798433 -0.02047013 -1.7543572e-07 0.023259146 0.004930896 0.22306539
-0.047206726 0.04852183 -0.22881663 0.06850314 -0.11155894 0.08710469 -0.096034884 0.016268643
0.008152374 -0.013182292 0.047616664 -0.1385996 -0.042612024 -0.037400324 -0.047154196 -0.02440349
-0.07651377 -0.013947761 -0.027737131 0.016734587 -3.552397e-15 -0.047629207 -0.031067098 -0.015622253
0.07553137 -0.12864088 -0.017282084 -0.065686636 -0.0032263095 -0.055476867 0.11550035 -0.145131
-0.07099811 -0.05559659 -0.08270267 0.05567441 0.07466256 0.12751967 0.028136352 0.0036393965
0.06107704 0.104474075 0.011398774 0.098936334 -0.10414151 0.108409986 -0.17400418 -0.042034246
-0.033831526 -0.01647187 -0.08441859 -0.11148112 0.11131576 -0.026429404 -0.022683285 0.23176041
0.086269 -0.17805603 0.049548805 0.017317794 -0.04419928 0.0050142915 -0.08153693 0.10095693
0.15956686 -0.073769905 0.032246206 0.025425807 0.028848782 -0.05077317 -0.07300417 -0.051650256
-0.15839595 -0.056681585 -0.1310114 0.11997899 0.11705635 -0.0076221335 -0.15811196 -0.1445077
-0.06182789 0.04411284 -0.073546484 -0.20387512 0.14342292 0.059655625 0.05049537 0.052430212
-0.041745257 -0.04474167 -0.09256516 -0.1771677 0.03401726 -0.03892911 -0.061478745 -0.022747368
-0.07446435 -0.024102088 -0.06912613 -0.026272379 -1.1776205e-05 -0.13342622 -0.1621065 0.09024966
-0.052909076 0.042438984 -0.03322587 0.012462744 -0.043835506 -0.01754935 -0.056215562 -0.083776906
0.1589343 0.025573054 0.031904034 0.021645255 -0.020460168 -0.077677265 -0.002319607 -0.049496047
-0.11797169 -0.12681846 -0.13919818 -0.10190895 -1.320289e-10 -0.02465621 0.037413962 0.00075007
0.16921675 -0.038810674 -0.0058821775 0.1520493 0.16733012 -0.11154113 -0.035945266 -0.0053344695
0.120098986 0.022376554 -0.03343887 -0.019487018 -0.06252711 0.08218715 -0.13600601 -0.0978167
-0.1303852 0.019428633 -0.045049634 0.04069567 -0.012581273 -0.09052345 -0.010116089 0.07745174
-0.035856377 0.085964255 -0.00020712828 -0.14179124 -0.047462318 -0.23415352 -0.10700585 -0.036289625
-0.0069950903 -0.1189268 -4.010724e-08 -0.09062105 0.019224513 0.052572783 -0.0031270306 -9.823281e-06
0.008274134 -0.14957716 0.013895348 -0.0037327819 -2.2997893e-13 -0.042134535 0.05510776 -0.003805252
-0.011406338 -0.18131417 0.004199603 -0.021642087 0.100302465 -0.053867117 0.04441426 0.04837714

dense_1.weight f4 [128, 256]
00000000: e22a e2bd f419 4abc be11 7abc 3742 433d
00000010: 69b2 0180 89d0 4ebd ca4c 863c 6278 993d
00000020: 09d7 ff3c 1c83 95bd 079a 0c3c e9b6 513c
00000030: f63e 0cbd 27d3 dbb8 8020 b83b ba60 393d
00000040: 1aca 883c 78a3 493c a103 ea3a 1921 0bbb
00000050: 93d4 6f3c f7be f6bc 5fc1 253d f99d 73bd
00000060: 0204 86bd 034a c6bd 6941 1dbc 73bc e4bb
00000070: 715e d0bc a4fa aebc 21db 863b 9597 16bd
00000080: 31db f939 6af1 f3bb 8c97 3f3e 6850 79bd
00000090: b462 3a3b 5444 2ebd 7da9 d33c ef06 143c
000000a0: a361 883c 5dfb 1e3c 8bc3 8b3c 275b 163d
000000b0: d66d c73c 8233 b0bc 56f0 a23b 81b5 47bc
000000c0: 7475 9bbc 3ffb a4bd e6f7 c4bc c01f 973d
000000d0: 860b 81b3 329f 28bd 2041 cdbb bbc7 8b3d
000000e0: 00da efbb 3e73 bcbc b6d1 ad3b 73db b9bd
000000f0: f694 513d c1e8 183d 18a3 33bd 84d7 b7bc
00000100: ac4a bebc d248 2dbd ffac 80bd 471a e03b
00000110: 8cca 589b bac8 13bd 71cf 6cbc 087d cc3a
00000120: 1d13 d7bd 6506 2fbd cb6d dcbd ad54 0f3d
00000130: 1582 89bc 53a6 ca3a e344 fb3c a599 903c
00000140: c0f4 c03b 99f4 903c a458 72bd cca2 dbbd
00000150: 0df9 453d cd44 283c 4df7 d73d 42b1 94bc
00000160: be28 c0b8 6441 d0bd 3fe2 1ebb 91b0 bd3b
00000170: 1847 1080 a4fc d0bc 733a cdbc 9f30 7cbd
00000180: 7162 b0bc c87f cc3c 3d5a 67bc d310 ac3b
00000190: 023f 123c 5872 23bd cf7e 483d 9a31 21bc
000001a0: af4d 243e 2975 0426 0147 af36 6827 733c
000001b0: 7745 54bc 4244 10bd 4e82 f1bd f18f d0bc
000001c0: b93b 57bc 426a 183b 05b3 34bd f0bf d43c
000001d0: 3ec3 8eae b51f 61bc bfc2 b7bd 9d67 e43c
000001e0: df64 923b e4af c62f 0f67 babb 0bbf c3bc
000001f0: 1be8 a73d 42ab a4bd 8e9d 0635 f3c0 3d3d
00000200: 0b9a 533b 2dae 59bd f16e 663d 54cd 5bbc
00000210: 18a4 9b3d d1ee 03bc 2f5e 06bd f7a7 263c
00000220: 160a 063d 63eb 76bd c64f 293d bba4 2bbd
00000230: 9db0 07bd 5e04 3abc 27cb 2a3d 00d8 6a3b
00000240: 575a 1ebd 20fe 023e bb1d 8d3d 6d66 2f3b
00000250: f928 023e 768c 063c e96a 81bc 0718 443d
00000260: 784e 1abd 265d 043d ee77 00ba 3792 62bd
00000270: f8a9 6abb e71c bb3c cd7e 4ebd b7c8 0a3e
00000280: a0ce 1234 79c9 1c3e e9fb 4dbc 5227 c0bd
00000290: 752a 69bb 0a43 77bd 7ed5 853d 2f01 fcbc
000002a0: c1f9 473c 58ee 9bb8 bd5b d13a cd70 dbbc
000002b0: 071d 1200 7164 a73c d66e abbb 7672 39bb
000002c0: 0a83 a63c de99 343d 3e5d e1bd 39fe 9e3c
000002d0: 67c8 113b 6ac5 c1bc 577e acbd 8a13 ba3d
000002e0: 84f6 1cbc c99e 43bc 2fdd 713d 1ea0 8cbd
000002f0: 6cad ce3a ec3e 41bd 0e95 d0b1 df27 a3bc
00000300: 0bf7 463b abab f8bc e8f6 8fbd 3a99 4bbc
00000310: 284d 0580 3585 a23d 5603 c2bc d7d3 8abc
00000320: 223c 8fba 978f a9ba 27e8 0080 f958 bebd
00000330: 54f0 4fbd 8a7d 4fbd 7090 fabc 2b54 b43c
00000340: a0ad af3c 339a 863c b0ad cd3c 165e 81bd
00000350: 9e23 06bd a629 3fbc 9279 11be c810 d2bc
00000360: d177 3b3c 96b8 f53c 0690 02bd 1943 5f3c
00000370: 9582 2dbd 793d 073d 6d5a 663c 7618 84bd
00000380: fb2a 8f3c d2ad 21bd 73e7 e8b3 86b9 aa3b
00000390: 3766 383d 4118 83bd 7714 23bc c685 c5bd
000003a0: dad4 0f00 f207 123d a1fb cda4 528f deba
000003b0: 1285 ab3a c3b2 31bd 3628 283c 34b5 001c
000003c0: 1b62 233d 2656 11bd 088d 83bd 8146 a1bc
000003d0: 2257 0680 91d9 20b5 d63d e03d 3fa3 55bb
000003e0: 4665 9dbd d19f d3bd 0b86 703c d665 2b3c
000003f0: 20d3 8d3d 29b3 dc3a 6eb5 dbbc 1360 5e3c
-0.110433355 -0.012335289 -0.015263019 0.04767057 -1.55837e-40 -0.050491843 0.016394038 0.07493664
0.031230466 -0.07300398 0.008581645 0.012799957 -0.03423973 -0.00010482064 0.0056191087 0.04525826
0.016697932 0.01230704 0.0017853865 -0.0021229445 0.014638084 -0.030120356 0.040467616 -0.059476826
-0.06543733 -0.09682085 -0.0095981145 -0.0069804727 -0.025435658 -0.02135975 0.0041154777 -0.036765654
0.0004765629 -0.0074445503 0.18710154 -0.060867697 0.002844018 -0.04254563 0.025837654 0.009034856
0.01664812 0.009703484 0.017061016 0.036708023 0.024344366 -0.021508936 0.004972498 -0.01218927
-0.018976904 -0.08055734 -0.024043988 0.07379103 -6.009127e-08 -0.041167445 -0.006263867 0.06825205
-0.007319689 -0.02300417 0.0053045405 -0.0907506 0.05116745 0.037331346 -0.04385671 -0.022441633
-0.023228966 -0.042305775 -0.062829964 0.00683907 -1.7932548e-22 -0.0360801 -0.014453755 0.0015601227
-0.105016924 -0.042730708 -0.10763129 0.034992862 -0.01678566 0.0015460945 0.030672496 0.017651388
0.0058885515 0.017694758 -0.059166566 -0.107244104 0.048333216 0.01027031 0.10545216 -0.01815093
-9.162862e-05 -0.10168722 -0.002424374 0.0057888706 -1.494872e-39 -0.025511093 -0.025052285 -0.061569806
-0.021531316 0.024963275 -0.014120636 0.005251029 0.008926155 -0.03990397 0.04894906 -0.009838486
0.16045259 4.595548e-16 5.2236724e-06 0.014840938 -0.012956015 -0.035221346 -0.11792432 -0.025459262
-0.013136798 0.0023256694 -0.04411604 0.02597043 -6.4920944e-11 -0.01374047 -0.08972692 0.027881438
0.004467591 3.6140968e-10 -0.005688555 -0.023894807 0.081985675 -0.08040477 5.014816e-07 0.04632659
0.0032287862 -0.053144623 0.056258146 -0.013415653 0.07599658 -0.008052544 -0.032804664 0.010171882
0.032724462 -0.060283076 0.041335844 -0.041905146 -0.033127416 -0.01135358 0.041697647 0.0035834312
-0.038660374 0.12792253 0.06890436 0.0026763931 0.12710942 0.008212199 -0.015798049 0.047874477
-0.03767249 0.032315396 -0.00049006834 -0.055315223 -0.0035806876 0.02284093 -0.050413895 0.13553129
1.367248e-07 0.1531123 -0.012572267 -0.093825 -0.0035578285 -0.060366668 0.06534861 -0.030762283
0.012205542 -7.435371e-05 0.0015972775 -0.026787186 1.663452e-39 0.020433636 -0.0052317185 -0.0028296984
0.020326156 0.04409205 -0.11004113 0.019408332 0.0022244693 -0.023653705 -0.08422535 0.09085758
-0.009580258 -0.011939713 0.059048828 -0.068664774 0.0015768236 -0.047179148 -6.0705423e-09 -0.019916473
0.0030359651 -0.030355295 -0.070295155 -0.012426669 -4.86856e-40 0.079355635 -0.023683231 -0.016946716
-0.0010927955 -0.001293647 -8.328e-41 -0.09294314 -0.050766304 -0.050656833 -0.030586451 0.02201279
0.021445096 0.01643095 0.025107235 -0.063167736 -0.03274881 -0.011667645 -0.14206532 -0.025642768
0.011442141 0.029995244 -0.031875633 0.013626837 -0.04236086 0.03301761 0.014059645 -0.06449978
0.01747655 -0.03947241 -1.0845442e-07 0.0052101044 0.045019355 -0.064011104 -0.00995361 -0.09644656
1.453889e-39 0.03565211 -8.9330854e-17 -0.0016979969 0.0013085923 -0.04338337 0.010263493 4.2585847e-22
0.039888483 -0.03548255 -0.06423384 -0.01968694 -5.8227e-40 -5.9921246e-07 0.10949294 -0.0032598523
-0.07685332 -0.10333217 0.014680396 0.010461291 0.069250345 0.0016838062 -0.02681991 0.013572711

dense_1.bias f4 [128]
00000000: a8da f7bd cf6e 6abd 0e67 e9bd ba16 f33c
00000010: f2e5 873e c676 8ebd 111b e0bc 70db c6bd
00000020: b3ca b93c 9600 d13d 8467 b8bd 5bef 683d
00000030: 3f1b 163d b0e4 e73d 4e9c ad3e ad5d c6bd
00000040: 26fa 063e 6913 053e e3cb 03be 8217 253b
00000050: 3997 12be dfa0 b73e 3d9a 4fbc 77af 9fbc
00000060: a946 4e3d b81f ea3d 4fce 25be b1b1 42be
00000070: b6d0 99bd ac9a 72bd a7f0 873e 840a cdbd
00000080: 8dd2 083e 6883 6dbe 0614 25be 25e1 e4bd
00000090: b387 563d 8f8f 88bd c07f 113e 8e0b edbd
000000a0: f3d8 55be 6d4c b83d f4fe 123e 124d 03be
000000b0: 05cf 6bbe 515a f7bd f545 f43b 0fb1 423b
000000c0: 1f97 503c c11f 6cbd f1ec 35bd 9c36 adbd
000000d0: d920 363d 1780 83bc 4bd6 263e 2421 3fbe
000000e0: f47c 8c3e 18aa a83e 9761 043e 955d 1dbe
000000f0: 6583 50be b5ab fcbd b168 0ebe 5750 c0bd
00000100: a4fc c5bd 8efe 873e b2d8 07bd 2af8 a8bd
00000110: 9a22 e9bd 6619 03be bb51 d73d b555 0bbe
00000120: ac2f 09be 3717 5ebd ed55 39be 822b f5bd
00000130: fb5d 67bd 8b44 2abe 1d37 38be 159e 03be
00000140: 0cd1 0c3e 40e8 ccbd 2a9d eebd 1765 15be
00000150: e3c3 8abd e52e 28be c66e 3dbe dfda bb3e
00000160: 2cf3 903a 7651 5abe 9712 98be 3d50 943e
00000170: bc8f 7fbd 90de e0ba 9b76 34be 5b9c 173d
00000180: 005b 083e 15c7 723c c947 30bd 6a09 f6bc
00000190: 1a61 fcbd ef4d 26be 60d4 6f3e fb1c bdbe
000001a0: 1cdc b53d a43a e0bd fe30 cd3e 7a73 973d
000001b0: 3efd 16be f6dc 0bbe 1667 aba1 137a ce3e
000001c0: 98bc 453d a5dc f93d 0bfd 31be 4544 17bd
000001d0: e57a 35be 281a 88be 99ce 21be 75f3 233e
000001e0: 2d2b 67bd 4b09 533d 267a 09be d8c1 c3bd
000001f0: e457 3dbd 46ad 45be 7433 87be 03be b7bd
-0.12102252 -0.05723458 -0.11396609 0.029673923 0.26542622 -0.06956248 -0.027356656 -0.09709823
0.022679662 0.1020519 -0.09004119 0.056868892 0.036647078 0.113229156 0.33908314 -0.09685836
0.13181362 0.12995686 -0.12870745 0.0025191014 -0.143155 0.35864922 -0.012671051 -0.019492848
0.050360356 0.11431831 -0.16191982 -0.19013096 -0.075105116 -0.059229538 0.2655079 -0.10011771
0.13361569 -0.23194659 -0.1612092 -0.111757554 0.052375507 -0.06668007 0.14208889 -0.115744695
-0.20883541 0.08998952 0.1435507 -0.12822369 -0.2302819 -0.12077773 0.0074546286 0.0029707586
0.012731343 -0.05764747 -0.044415418 -0.084576815 0.04446492 -0.016052289 0.16292684 -0.18664986
0.27439082 0.3294227 0.12927853 -0.1536773 -0.20362623 -0.12337438 -0.13907124 -0.093903236
-0.09667328 0.26561397 -0.03316564 -0.082504585 -0.11383553 -0.12802657 0.10513636 -0.13606913
-0.13397092 -0.05422136 -0.18099184 -0.11971189 -0.05648611 -0.1662771 -0.17989774 -0.12853272
0.1375162 -0.10005236 -0.116510704 -0.14589344 -0.06775644 -0.16424139 -0.18499288 0.36690423
0.0011058799 -0.21320137 -0.29701683 0.28967467 -0.062392935 -0.0017156173 -0.1762337 0.037014347
0.13315964 0.014817973 -0.04303721 -0.030033786 -0.12323208 -0.16240667 0.23420858 -0.36936173
0.08879873 -0.10948685 0.4007644 0.07395072 -0.14745042 -0.13658509 -1.1614697e-18 0.4032751
0.04827556 0.12200288 -0.17381684 -0.03693034 -0.17722662 -0.26582456 -0.15801467 0.1601084
-0.05643766 0.051522534 -0.13425502 -0.09558457 -0.046226397 -0.1930438 -0.26406443 -0.08971789

dense_2.weight f4 [64, 128]
00000000: ad6e 823c 882e 7bbd 1124 313e 58b2 0dbd
00000010: 69ff 2e3b e78e 2abd 96d5 31be ef10 6abe
00000020: 01ae bbbe 2795 273e 48d9 5c3e 7d00 1a3e
00000030: a6a1 aabc 48b3 873e 434b c73d 7d59 b8be
00000040: bb05 413e 8f42 983d 68cd b1be b417 01bd
00000050: 6192 823d 4447 643d ad9f bb3d f6c1 b9bd
00000060: c4de 063e 8e09 ba3c 2bd5 a5be 2b9e 84bd
00000070: 3325 0abe bfc6 efbd d366 083e 5843 5abe
00000080: 0093 32bc 2ff7 33bd ae18 dfbd 56cf 853d
00000090: d1f4 0d3e 6721 1c3c e376 983c 3dfa 003d
000000a0: 042b 983c 76c5 9abd fe5e ffbd e2b1 4bbd
000000b0: 7243 a63d 1b03 aa3d 68a8 6ebd 82c5 67bd
000000c0: bb4a 1c3e 9d36 bbbd fd29 43bd c57d 16be
000000d0: f27f 463d b648 da3d 83da c83d a321 f53c
000000e0: 28e3 513d e875 9e3d 0e54 1f3e 4661 703c
000000f0: 43fa 43bd f947 173e 091c 333e b879 023e
00000100: b35d 1bbd 4f51 423e 62d0 4bbd 596c cd3c
00000110: d14b 6abe 71ae 7dbe 083d 943d 3626 fdbb
00000120: 61dc 583d b8ad 7ebd d871 66bd 5ed8 1cbd
00000130: 33d0 3bbc 9b6e eabb 06b7 8b3d ac16 3fbd
00000140: a081 e73d 18a5 bb3d ffe0 d4bd a1ec fcbd
00000150: 1b00 533e d7a8 d13d d387 05be 3701 573c
00000160: fd22 cebd 3e0a 4ebd ef18 2ebe 76c8 d6bc
00000170: 8326 2e3e 7c79 273d ff7b edbd a701 573e
00000180: 3290 283d ec87 313d e69d cfbd a8c7 c53d
00000190: a593 85bb d213 f23d bff3 f13d 9855 483c
000001a0: 3b9a 6b3c 3a96 db3d 2f91 f53a a2e5 12bc
000001b0: e871 2cbe 822e 3f3d 1395 0480 70c6 003e
000001c0: 477e 7d3e e68c c8bd 1aee 063c 9508 70be
000001d0: 35e7 60bc 75d9 65be 55b2 903d 9a46 92bd
000001e0: 62a4 f33d f361 9d3d ecf2 66bc f7ba bbbc
000001f0: 081c 023d 5610 543e bb2b aa3c 607a d6bc
00000200: e12e 863d 52e5 02be 6192 74be 5ea8 013e
00000210: 64dc a03c 4d9b 123d 6230 f6bd cbca 55be
00000220: dcf5 b43c 8c0b dfbd 8368 babd 390a cabb
00000230: df64 ecbd 9e74 e5bd fd1e 7a3d 72f3 e4bc
00000240: 4b06 29be 4c1d db3c a889 bc3d c1ec ce3d
00000250: eb48 31bc 80c7 373d ced5 e0bd a832 6dbd
00000260: 6308 9fbd f662 43ba da14 ae3c 1f27 7f3d
00000270: 7bfe 1ebd 4de5 ff3d d15a 09be 3e26 01be
00000280: 392f 1abd 0cc0 9ebd c34f 20be 58c3 f13d
00000290: dfb6 18be b3d6 acbd b4ec 0b3e d4e5 863c
000002a0: f11a 003e 06fc 83bd b603 483e cd0e c53c
000002b0: 3388 13be 55dc 00bd 74f2 a9bd 9ddd 0abe
000002c0: c81b 4fbe 0ff2 31bd de69 76bd 6ad9 9abd
000002d0: 86ca 1f3d 290a 7dbd 2a01 89be e758 45bc
000002e0: 9a3d d43d 2686 6e3d da26 8abd eade 92bd
000002f0: 558e b6bc 83e1 85be 8acb f4bb 2cb9 a1bd
00000300: 0a16 603c 591b 11bd ec12 d43c a329 08bd
00000310: 8cfd dd3d 3255 0b3d c8b0 783d c509 acbd
00000320: 79e4 983a a978 a03d cacd f3bd 4a8c e0bc
00000330: d5e1 27be 277f 543e 3922 c43b c483 4b3b
00000340: 46ae dfbd 7f22 ddbc faa1 b0bc 321e 09be
00000350: 9f62 c8bd 4d94 11bc 2cd1 47be a6a4 1c3d
00000360: f8b5 cc3d 7e1d 82bd f298 933d fd3c 613d
00000370: a51a 1bbd 912f 09be 0c78 83bd f60c a8bd
00000380: 1243 273c 46c9 58bd 16a2 af3d 3a2c 8e39
00000390: 342b 05b9 a61f 913d d5cb 073e ba0d 3b3d
000003a0: 2931 f4bc d93a 243d 4c96 f83b f2c5 66be
000003b0: 3a63 21bc ae1f 5a3d ba45 0080 61c6 123e
000003c0: 0195 05be e17a e4bd 8797 eabd df70 04bd
000003d0: 3ad3 683c 77fe 35be 9492 30bd ff42 473b
000003e0: ace4 89be 8e52 64be c643 ddbd d75d babc
000003f0: 0e5f 75be 47f9 d63d 7ac5 383d 66ac ecba
0.015921915 -0.061323673 0.17298914 -0.03459391 0.002670253 -0.04164019 -0.17366633 -0.22858022
-0.36656192 0.16365491 0.21567261 0.15039249 -0.020829033 0.26503968 0.09731152 -0.36005774
0.18849842 0.0743457 -0.34727025 -0.031516746 0.06375576 0.055732027 0.09161315 -0.09070198
0.13170916 0.022709634 -0.32389197 -0.06475481 -0.13490753 -0.1170783 0.13320474 -0.21314752
-0.010899305 -0.043936905 -0.10893379 0.06533687 0.13862921 0.009529448 0.018611377 0.031488646
0.018575199 -0.07557194 -0.1246929 -0.04973019 0.08118333 0.083013736 -0.058266073 -0.056584843
0.15262882 -0.09141276 -0.047647465 -0.14696415 0.048461862 0.106584 0.09807303 0.029923266
0.051242024 0.077373326 0.15559408 0.014671629 -0.04784609 0.14773549 0.17491163 0.12741745
-0.037931155 0.1897633 -0.049759276 0.025076078 -0.22880484 -0.24773575 0.07238203 -0.0077255024
0.052944545 -0.06217739 -0.056260914 -0.03829228 -0.011463213 -0.0071542985 0.06822018 -0.04665248
0.11304021 0.091623485 -0.10394477 -0.12349821 0.20605509 0.10237282 -0.13040094 0.013122848
-0.10065267 -0.050302736 -0.17001699 -0.026218634 0.17006879 0.04088734 -0.11595916 0.20996724
0.04115314 0.043342516 -0.101375386 0.09657222 -0.0040764385 0.11820187 0.11814069 0.012227438
0.014380033 0.10722013 0.0018735285 -0.008965882 -0.16840327 0.046675213 -4.2082e-40 0.12575698
0.24755202 -0.09792499 0.008235479 -0.23440774 -0.013726999 -0.22446235 0.07065264 -0.071423724
0.11896588 0.07684698 -0.014096003 -0.0229163 0.031765014 0.20709357 0.020772805 -0.0261814
0.0655191 -0.12782791 -0.23883964 0.12661883 0.01963634 0.035792638 -0.12020947 -0.2087814
0.022089891 -0.10890874 -0.09101965 -0.0061657694 -0.11542677 -0.112038836 0.06106471 -0.027948115
-0.16506307 0.026747368 0.09205943 0.10103751 -0.010820608 0.044867992 -0.1097828 -0.057909638
-0.077652715 -0.0007453406 0.021250177 0.06229317 -0.03881691 0.124949075 -0.1341355 -0.12612244
-0.03764269 -0.07751474 -0.15655427 0.11804837 -0.1491351 -0.08439388 0.13664514 0.016467012
0.12510277 -0.06444554 0.19532666 0.02405491 -0.14407425 -0.031460125 -0.082981974 -0.13561101
-0.20225441 -0.043443736 -0.060159557 -0.07561 0.0390115 -0.061777268 -0.267587 -0.012045122
0.10363312 0.058233403 -0.067456916 -0.07171424 -0.022284666 -0.26148614 -0.007470553 -0.07896647
0.0136771295 -0.03542647 0.025887929 -0.033242833 0.10839376 0.034016795 0.060715467 -0.08400301
0.001166477 0.07835514 -0.119044855 -0.027410645 -0.16394742 0.2075163 0.005985525 0.003105388
-0.10921912 -0.026993988 -0.021561611 -0.13390425 -0.097844355 -0.008885455 -0.19513386 0.03824296
0.09995645 -0.063532814 0.072069064 0.054989804 -0.037867207 -0.13397051 -0.064193815 -0.08205597
0.010208862 -0.052926324 0.08575837 0.00027117302 -0.00012699963 0.070861146 0.1326135 0.045667388
-0.029808598 0.040095184 0.007586276 -0.22536448 -0.009850318 0.05325287 -2.5013e-41 0.14333488
-0.13045122 -0.1115625 -0.11454683 -0.032334205 0.014210517 -0.17772852 -0.043108538 0.0030404923
-0.26932275 -0.22297117 -0.108039424 -0.022749824 -0.23962042 0.10496765 0.045110203 -0.001805675

dense_2.bias f4 [64]
00000000: 49b2 203e 5e1f 813e 177a 053e af56 ef3d
00000010: ff11 f7bc 5e38 2abe 1f41 32be aac7 be3d
00000020: 8549 d8bd 958e 4d3e 3a63 84bd dd32 cc3e
00000030: 7779 5fbb 39ee a9bd 0e36 3c3e 585d 8a3e
00000040: 1efc fe3d 4d2c 0dbe 11d0 f83e c106 9b3e
00000050: 27b3 1eb5 751f dcbc 9c14 153f 05d5 b9bd
00000060: a6fd a3bb 5348 16be 264e af3d 734d c33e
00000070: cd57 a4bd 0331 403d 609b 51bb 244a 71be
00000080: 2f1d 08be b319 02be cce2 123b b98e 48bd
00000090: 32b2 033e 78d3 143e f907 89bd 31a9 25be
000000a0: 21ba 903d d5fe 8abd 8a9e 94bd c06e 013d
000000b0: 2872 97bd 062e ecbc b7ee 0abe 6b90 a13e
000000c0: c15f 423e 57db 513c d413 99bd 2c0a 3e3c
000000d0: 9eb8 eb3d 4427 3b3e 37e0 eebd b41d 16be
000000e0: 52e1 24bd 8efd 93bd 2300 87bc 5dff 623e
000000f0: 1eb0 22b2 abbf 8e3e 64e9 b43c 0c51 ebbd
0.1569301 0.25219244 0.13034855 0.116864555 -0.030159948 -0.16623065 -0.17407654 0.09315427
-0.10560898 0.20073922 -0.064642385 0.39882556 -0.0034099498 -0.082973905 0.18379995 0.2702434
0.12450431 -0.1378643 0.48596242 0.3027859 -5.912029e-07 -0.026870469 0.5823457 -0.090738334
-0.0050046025 -0.14676027 0.085598275 0.38145027 -0.08024559 0.04692174 -0.003198348 -0.23563439
-0.13292383 -0.12705116 0.0022413014 -0.048964236 0.12860945 0.14533794 -0.06690974 -0.16177823
0.07066751 -0.067868866 -0.072568014 0.03159976 -0.073948205 -0.02883054 -0.13567625 0.31555495
0.1898184 0.012808642 -0.07474485 0.011599105 0.11509822 0.18276697 -0.11663859 -0.14659768
-0.040253945 -0.07226096 -0.016479557 0.22167726 -9.4696855e-09 0.27880606 0.022083946 -0.11490068

dense_3.weight f4 [10, 64]
00000000: 0e54 303d 4624 e93d d241 cfbd a389 aa3d
00000010: 375d bf3a 8f3a f4bd 795f 2f3d 547b 14be
00000020: 5ada a73d ccf6 26be 0cb9 72bd 9907 cf3d
00000030: a579 0a3c 429e 2bbd e410 7b3d d6aa f0bd
00000040: 22e1 a6bc d1ed 2b3c 1901 d4be 9f12 42be
00000050: b098 deaf 16a2 1e3e 8979 2abe 7371 4f3c
00000060: 25ee 64be cc2d aa3c 5284 b3be c995 6abe
00000070: 82a0 0fbd 0087 4abe 7492 55bc 8686 9abe
00000080: 85c1 84ba c651 d8be 4a50 d23d 7db9 a6ba
00000090: a5ba 2b3e 1dec d4be b81c 1fbd b3c1 d23d
000000a0: 3c86 70bd e645 b03c 7687 87bb 309a d93d
000000b0: 6f1e 57be 161a 8ebc 44ea 9fbc 44dd 4fbe
000000c0: e0ff 5e3e 43ed a6be 8c05 ebbe f044 1f3e
000000d0: c71d 11bf 1dbf c3bd d3e1 56be 7d9c 313d
000000e0: b848 73be f78e 6abd 2b12 90be 217b e3bd
000000f0: 1ad8 8faf bc7e dc3d de75 89be 6644 133e
00000100: 776d 21be 1364 42bd 882e 8cbe f8ad f73d
00000110: 8de3 24bc e7d4 5f3e 815e 84be ac00 733c
00000120: e50f 013d 8719 0ebe e110 14be 11ac 83be
00000130: 2816 18be 0ab9 9cbd 7c31 09bd 0a01 65be
00000140: de5d df3d 0b8b 4e3d f981 6abe 8725 d43d
00000150: 0063 a835 c1c6 12be 8273 32be ed54 41bc
00000160: 713d 1c3e 9ad1 50be 7a7c 583d 5471 443e
00000170: b622 58bc dab5 8cbe 6644 6fbc 474c bf3d
00000180: f8ab 25be 9221 1dbe 357a f0be c1d5 9ebc
00000190: f698 11be 8d95 66be b104 10bb 9ac6 bbbb
000001a0: f9d2 7e3c 1d6e 9bbb 5250 363c 4e98 8abe
000001b0: 7134 3b3e 18a1 e63d ac03 3d3d 6c65 293e
000001c0: e8be 253e 43e9 76be 4035 133e 0558 98be
000001d0: edc4 4f3e 20ad dbbd f816 c13c 8a65 673c
000001e0: 06b7 25be cf8d 3abb 7563 7d3e f74b 7fbe
000001f0: 093f 0080 c652 d5be 74fb 403e ec8d 11be
00000200: 55dd 863d d092 aabc e0b9 ce3d 91fd 61be
00000210: 80b5 fabd 4fc3 d0be 6e5c c03c 2e91 543e
00000220: cdee 453d cae4 6abe ca36 7d3c 31e2 36bd
00000230: 52bd da3b 00e9 62bd 17c4 fa3b 4090 e43c
00000240: 07f6 933d adeb 83be 4632 88be 46de 6a3d
00000250: 45a3 c530 5e1c 1dbe 3293 b73d 8737 14bc
00000260: b8b7 153e a33a 823c 80cd 643d 1cf5 9dbe
00000270: f219 18be 2c4f 2fbd 6c14 03bb 03d7 9e3d
00000280: 35c6 fc3c 6fe2 abbe 10c9 cdbe 9026 55bc
00000290: 0a05 a83d f579 71be 6724 e13c bb68 81bd
000002a0: bfe7 ec3c 5f20 063d 128f 5d3b 02ec 7fbe
000002b0: 9337 39be 9d26 253e e99e abbd 7f4f 80be
000002c0: 8e8b 83be 7217 233e eec8 b8bd 044c 4e3d
000002d0: 4203 8b3d 080e 99be 3372 123d ebe1 89bd
000002e0: 268b 35be c98c a93b 9822 b63d 3022 053e
000002f0: c83d d236 c424 c93d c8f7 53be 9b5f ec3d
00000300: 1c22 8ebe 91d6 6ebd 7de5 30bb f4e8 00be
00000310: 03a8 99bc 03d0 babe c688 febd 6ff7 3d3d
00000320: bc35 bcbc 28bf a1be 4024 a8bc 4545 0c3d
00000330: 0cc1 80bc 5a2f 06bc 0bc1 563c a927 253e
00000340: dfb6 87be fc89 303d 934c 803d bc2d 8fbe
00000350: 4df1 8eac e030 0dbe 0ea6 89bd 1d7d 293c
00000360: 91b8 9e3c 3226 7c3c 7eef 0c3e 30c7 b0be
00000370: 600c 2ebe 0f3b 4cbe 04f3 61bb d4bf 6f3c
00000380: b31a aebc bed2 043e 316f 59be 83df 16bd
00000390: b7de fa3c 10b2 a7be 0e23 f43b cc7d c7bd
000003a0: 5544 03bc 7e3c 003e af85 9cbb f32f 0dbe
000003b0: bf7d 053e 5531 35bd 12ba 81bb 2cad 06bf
000003c0: c7df b1be f17a 20be 0a8d 393d fe18 da3c
000003d0: 6073 b8bd f17a f33d a8ae 813d df6b c3bc
000003e0: 0eca 69be 5530 8f3b be7e b3be 7c23 b33c
000003f0: 6a37 d035 75c5 0f3e 9899 473e 4624 88be
0.04304891 0.11383872 -0.10119976 0.08327033 0.0014599924 -0.11925232 0.04281566 -0.14500171
0.08195944 -0.16305083 -0.059258506 0.10108871 0.008451854 -0.041898973 0.061295405 -0.11751334
-0.020371024 0.010493712 -0.41407087 -0.18952416 -4.0490056e-10 0.15491518 -0.16647924 0.012661326
-0.2235647 0.02077379 -0.3506189 -0.22908701 -0.03506518 -0.19778061 -0.013035405 -0.30180758
-0.0010128474 -0.42249888 0.1026922 -0.0012720075 0.16770418 -0.4158639 -0.038845748 0.102908514
-0.058721766 0.021517705 -0.0041360212 0.10625112 -0.21007703 -0.017346423 -0.019520886 -0.2029925
0.21777296 -0.3260289 -0.4590267 0.15553641 -0.5668606 -0.09557936 -0.20984583 0.04336213
-0.23758209 -0.05726525 -0.2813886 -0.11107469 -2.6165098e-10 0.1076636 -0.26847738 0.1438156
-0.15764414 -0.04745872 -0.2737925 0.12093729 -0.010064018 0.2185856 -0.2585335 0.014831703
0.0315093 -0.13876925 -0.14459564 -0.25717214 -0.14852202 -0.07652481 -0.033494458 -0.22363678
0.109065756 0.05042557 -0.22901143 0.1035872 1.2545788e-06 -0.14333631 -0.17426875 -0.011800033
0.15257813 -0.20392457 0.052853085 0.19183856 -0.0131918695 -0.27482492 -0.01460371 0.093407206
-0.16178882 -0.15344837 -0.46968237 -0.019389035 -0.14218506 -0.22517987 -0.0021975453 -0.0057304623
0.0155532295 -0.004743351 0.011127548 -0.27069324 0.18281724 0.11261195 0.04614608 0.16542596
0.16186106 -0.2411242 0.14375782 -0.29754654 0.20289965 -0.1072638 0.023570523 0.01412333
-0.16183099 -0.0028465872 0.24744971 -0.24931322 -2.2613e-41 -0.41664714 0.18845922 -0.14214295
0.065851845 -0.020821959 0.100940466 -0.22069384 -0.1224165 -0.4077401 0.023481574 0.20758507
0.04832344 -0.22938839 0.015454957 -0.044649307 0.006675401 -0.055397987 0.0076527703 0.027900815
0.0722466 -0.25765744 -0.26600856 0.057340883 1.438004e-09 -0.15342852 0.08963622 -0.009046442
0.14620864 0.0158971 0.055860043 -0.30851066 -0.14853647 -0.042800114 -0.0020001186 0.07755854
0.030856231 -0.33571193 -0.4019246 -0.013009682 0.08204086 -0.23581679 0.027483178 -0.06318804
0.028919099 0.032745715 0.00338072 -0.24992374 -0.18087606 0.16128011 -0.08379919 -0.2506065
-0.2569241 0.15926912 -0.09022699 0.050365463 0.06787731 -0.29893517 0.03575344 -0.067325436
-0.17728862 0.0051742536 0.08893317 0.13001323 6.26568e-06 0.098214656 -0.2069999 0.11541673
-0.27760398 -0.058310095 -0.0026992254 -0.12588865 -0.018756872 -0.36486825 -0.12428431 0.04637855
-0.022974841 -0.31591153 -0.020525098 0.034245748 -0.015717052 -0.00819 0.0131075485 0.1612841
-0.26506707 0.043100342 0.062646054 -0.2796458 -4.0626725e-12 -0.13788176 -0.067211255 0.010344771
0.019375117 0.015389966 0.13763234 -0.34526968 -0.16996908 -0.19944404 -0.0034477124 0.014633138
-0.021252966 0.12971017 -0.21233822 -0.03683425 0.030623777 -0.32753038 0.007450468 -0.09740791
-0.008011897 0.12523076 -0.0047766785 -0.13787822 0.1303625 -0.0442365 -0.003958949 -0.5260799
-0.3474104 -0.15671898 0.04530052 0.026623245 -0.09006381 0.118886836 0.06332141 -0.023855148
-0.22830984 0.0043697753 -0.35057634 0.021867506 1.5513335e-06 0.14040168 0.19492185 -0.26590174

dense_3.bias f4 [10]
00000000: c6bc 3e3d 1d97 82be b2ce b2bd 9823 103c
00000010: 5e3c fbbb 92f3 b8bd 9873 97be ca76 7dbd
00000020: 4e85 ae3e 0d17 dc3d
0.046566747 -0.25505915 -0.0873083 0.008797549 -0.0076671084 -0.09030832 -0.2958038 -0.061880864
0.34086078 0.10746584
