models/SimpleNet.pth (torch, 973795 bytes, 8 tensors)

dense_0.weight f4 [256, 784]
00000000: aeb3 0700 5b68 0f80 47d8 1300 d74f 0f80
00000010: 4ebd 0800 c6a6 0c80 ae17 0480 8a92 0680
00000020: 05d9 0c80 1af9 0b80 2523 0c80 175c 1180
00000030: cc1a 1400 3442 0e80 dd68 1480 ff34 0600
00000040: 5ade 0e80 5914 0000 30b6 0e00 0682 0200
00000050: 02e3 1480 66c1 0b80 036d 0900 6e06 1580
00000060: f768 0480 78d1 0d80 dc38 1300 029d 0a00
00000070: c45e 1380 f051 0c80 fd58 0300 8546 1380
00000080: 0a68 0200 a37b 0580 230b d500 f707 7b9e
00000090: 66f3 20b9 cea4 b738 1740 b83c 2ae5 ec3c
000000a0: 37e4 9e3c 4442 973b 3929 0c3c 5352 cd33
000000b0: 55d9 283b e1a2 2e3a 4dc1 9229 fb0e fab8
000000c0: ee9e 84bc b0a1 f5bc f3f4 febc f1d2 9ebc
000000d0: d963 0d80 289d 0b80 0408 0c80 c3ce 0a00
000000e0: 3ee5 0f00 87b2 0c00 aeb1 1000 5502 0080
000000f0: 2baa 2738 df8c 06b7 51be 32ac d43c c7b4
00000100: 1cf3 c8b9 91ec 873d 05bc e33d 8ccd 003e
00000110: 6945 913d 2284 bebd 215d 9abc 6cb4 14bd
00000120: 75dd bebc 8b0d 2e3a 66cf 6d3d 5f52 aebc
00000130: 1994 dcbc 1fee ebbc 8c43 02bd 44d2 f5bc
00000140: cf87 9dbb 7289 97a4 311f 0080 ecff 1380
00000150: f255 0580 b78f 0a80 21c5 0a00 4fcf 0600
00000160: 122f aa35 827f 9bbc 2b73 18bd 243b 3ebd
00000170: 6820 f5bc 2206 0b3d 42c7 bb3d 2ef5 243e
00000180: e28a 06bd 5da8 9abd 1b5a 20be d299 68be
00000190: 438d 91be 8451 ecbd 2bff 03be a1f7 0dbe
000001a0: 652f 25be 9176 e3bd 7ff2 c8bc 5946 23bd
000001b0: de4b 80bc 5a92 71b3 bf7d 0180 c20d 1180
000001c0: 8299 0e00 c3fb 0f80 7e10 0880 a0f7 0201
000001d0: 5f6e 19b4 0ac8 93bd 296e 28bd 01ac 663d
000001e0: 60be 1f3d 6293 953d b2da 863d 0e74 dbbd
000001f0: 63d2 cabd 549f db3c 7aed c3bb 92c7 37be
00000200: 7176 7fbe 5fba adbd d01e b1bd 7358 32be
00000210: 781b 0fbe 2165 46bd c5d4 803c 89dc 98bd
00000220: a186 52bd 8b01 2a3b c443 5eba 3c43 5eba
00000230: 9b8c 0280 1346 1200 72dd 171a f926 a038
00000240: af24 253c a98e 20bd 7f82 c4bd 3577 8b3d
00000250: 019d 8d3e 3dfc 223e 2ffd 71bc 8bee b8bc
00000260: 768e b23d 20fb 293e d00a cc3d a0e0 5cbd
00000270: a7d3 6ebd c295 94bd 96ff 063c 3915 bebb
00000280: d5b5 e0bd 8bba 153d eb73 87bd f914 98be
00000290: 7138 b1bd e590 0fbc 7305 8c3b dc85 34bb
000002a0: f87d 1580 290e 0780 d866 593c d9b0 b63d
000002b0: af10 1a3e 99d4 c43d 9993 203e 7b41 003e
000002c0: b6bf 4f3e d0fb a93e ce69 933e 5111 1a3e
000002d0: 5040 193e eff6 163d c70c 41bd 6034 b7bd
000002e0: 5096 d2bd 8544 89bc 085c f63b a715 393d
000002f0: 294f dabd c217 df3d ab74 c7bd 1fcb 80be
00000300: d384 45be 8ce9 babb 4a67 9f3c 5d41 0500
00000310: 72ed e997 f245 c72a 123d dd3c 5f65 ba3d
00000320: 59bf 213e d5ba 013e c12e 543e 6e93 443e
00000330: 72c2 1c3e aae3 5d3e fef3 253e 0b2e 973d
00000340: 343e 42bd b2c5 9dbd c236 65be a406 55be
00000350: 4e14 3abe 2e73 9dbd 6660 1d3d 5e9b 893d
00000360: a87a aeb9 52ba 2f3e 45d3 0f3d f423 22be
00000370: eba3 33be a2a1 54bd 7df9 9abc 3499 1280
00000380: 2637 eab9 7ac8 a22c 0a61 623c 2bea 0dbc
00000390: 9469 fe3d 5278 9e3d 62ed 183d d156 023e
000003a0: 975f 703e 1839 f13d eaa1 443e 90b3 04bd
000003b0: f357 11be 6382 51bd 0e90 ce3c 6768 06bd
000003c0: c25b bf3c 0ccd b23c 27ad a7bc 863d 083e
000003d0: 49e4 033e c83b 733d 4aec 1d3e 578e 423d
000003e0: c69a 12be 4900 0fbc 1261 21bc d929 0b00
000003f0: 1998 fb16 45f5 8b30 4429 923c 761d bebb
7.07305e-40 -1.414968e-39 1.82246e-39 -1.406174e-39 8.02594e-40 -1.161853e-39 -3.75837e-40 -6.03581e-40
-1.179878e-39 -1.099551e-39 -1.114633e-39 -1.594239e-39 1.846323e-39 -1.309446e-39 -1.874328e-39 5.70024e-40
-1.365462e-39 7.3e-42 1.351054e-39 2.30315e-40 -1.918145e-39 -1.079569e-39 8.65626e-40 -1.930852e-39
-4.04996e-40 -1.269005e-39 1.765272e-39 9.74679e-40 -1.77887e-39 -1.13142e-39 3.0743e-40 -1.770172e-39
2.20993e-40 -5.0353e-40 1.9564956e-38 -1.32894765e-20 -0.00015349462 8.756817e-05 0.022491498 0.028917868
0.01939593 0.004616054 0.00855475 9.561031e-08 0.0025764306 0.0006661844 6.517235e-14 -0.00011923719
-0.016189065 -0.029984325 -0.03112266 -0.019387694 -1.22968e-39 -1.066567e-39 -1.104901e-39 9.92527e-40
1.459769e-39 1.16607e-39 1.533107e-39 -8.37e-43 3.9974384e-05 -8.0198215e-06 -2.5400968e-12 -3.7110897e-07
-0.00038328103 0.06636918 0.11119846 0.1257841 0.07093317 -0.09302546 -0.018843235 -0.036304876
-0.023298958 0.00066395913 0.05805912 -0.021279512 -0.026926087 -0.028800068 -0.0318027 -0.030007489
-0.0048074494 -6.571865e-17 -1.119e-41 -1.836682e-39 -4.90009e-40 -9.6991e-40 9.89071e-40 6.25381e-40
1.2679686e-06 -0.018981699 -0.037219208 -0.04644312 -0.029922679 0.033941396 0.09168865 0.16109154
-0.032847293 -0.07551644 -0.15659373 -0.22714928 -0.28428087 -0.11538985 -0.12890308 -0.13863994
-0.16131361 -0.11106599 -0.024529694 -0.03986201 -0.015661176 -5.624529e-08 -1.36945e-40 -1.566139e-39
1.340765e-39 -1.467848e-39 -7.406e-40 2.405489e-38 -1.4289388e-07 -0.07215889 -0.041120682 0.05631638
0.038999915 0.07303502 0.065846816 -0.10715495 -0.09903409 0.026809372 -0.005979237 -0.17947224
-0.24947526 -0.08482813 -0.08648455 -0.17416553 -0.13975322 -0.048436288 0.015726456 -0.07463939
-0.051397923 0.002594086 -0.0008478726 -0.00084786466 -2.34111e-40 1.678177e-39 3.140495e-23 7.636654e-05
0.010079547 -0.03919855 -0.09595203 0.06809846 0.27658847 0.15916534 -0.014769836 -0.022574684
0.087185785 0.16599703 0.09963 -0.053925157 -0.058307316 -0.072551265 0.008239647 -0.00580087
-0.10972182 0.036554854 -0.066139065 -0.297035 -0.086533435 -0.008762573 0.0042731105 -0.0027545607
-1.973734e-39 -6.47928e-40 0.013269149 0.0892045 0.15045427 0.09610862 0.15681304 0.12524979
0.20287976 0.3319993 0.2879166 0.15045668 0.1496594 0.036856588 -0.047131326 -0.089455366
-0.10282576 -0.016756305 0.007518295 0.045186665 -0.1065963 0.10893203 -0.097390495 -0.2515497
-0.1928895 -0.0057041105 0.019458432 4.82625e-40 -1.5117212e-24 3.5398035e-13 0.02700666 0.09101366
0.1579565 0.12668927 0.2072096 0.19196865 0.1530855 0.21668878 0.16206357 0.07381829
-0.047422603 -0.07703723 -0.2238417 -0.20803314 -0.18171808 -0.076879844 0.03842201 0.06719087
-0.00033279252 0.1716092 0.03511359 -0.15834028 -0.17542998 -0.051911958 -0.018917793 -1.707998e-39
-0.00044673047 4.6265743e-12 0.013817081 -0.008661787 0.12422481 0.07737793 0.03733576 0.1272843
0.23473965 0.11778468 0.1920239 -0.032397807 -0.14193706 -0.051149737 0.025215175 -0.03281441
0.023359183 0.02182629 -0.020468308 0.1330472 0.12880053 0.059383184 0.15422168 0.047499027
-0.14316854 -0.008728095 -0.0098498035 1.025203e-39 4.0647224e-25 1.0183291e-09 0.017841943 -0.005801852

dense_0.bias f4 [256]
00000000: e333 82bd fb7e 4abe 63fd 953d 3ccd 46bd
00000010: 2ec5 6abd cbf1 edbd 858b b1bd 0c4b 8e3d
00000020: fada 28be ba9b 5abd a90f b2bd 1c5e 293c
00000030: e659 6b9d 815d 2fbd 3219 873d 2cc1 9d3c
00000040: 1f62 843b 1750 773d 62c8 3fbb e5de cdbd
00000050: fb80 043e f8ee 53bd 01d9 61bc 5124 f83c
00000060: ace5 16be fbc7 0cbd 749b b8bb b098 e2bd
00000070: 8169 873d 32bc d2bd 53b8 633d 6a7d 8cbd
00000080: cadc 3bbd ad42 d4bd 75dd 90bd 4553 b73d
00000090: 009f e13b 6eba cfa9 1a7e 67bc 74a2 d43c
000000a0: 09ca 723c 0404 a7bc 3c2d db3c bc23 78bc
000000b0: 1617 60a9 48ff 86bd f751 babd 2aa2 933d
000000c0: ce61 b3bc 542a a9bc 1886 423d b12e 95bb
000000d0: 45b4 053b a9dc e8bc 83c3 bb3d 060a 0bbe
000000e0: 3f99 2fbc 720c 79bc 7767 cbbc 02e4 fa3c
000000f0: 444a dcbd 164b 183d 8f85 09be 277c 6d3b
00000100: 7659 6bbd 8947 42bd ccaa 19be d316 0dbe
00000110: 937d 4cbd 016a 08b3 a480 83bd fd14 bebc
00000120: b60b 26be efe0 3fbe 8ef2 edbc 11f8 c5bd
00000130: 242a 70be 0fe4 9cbd 389f 833d 5ad4 43bd
00000140: 35f4 d6bc dfda 6a3d 57c7 d7ad 9011 ec3d
00000150: 679a 473d 8f0d 55bc be9d b1b1 d0ed 6cbd
00000160: acc4 b23b 28dd 983d 15c9 8abd fc2e 2cbb
00000170: d312 d03c 7a09 bcbc ccab 16be eba4 e33d
00000180: 9eed 12bd 974f 413e 94e8 a4bc 6a1d babc
00000190: 01dc d3bb 2e1c 1b3d 39d8 433c d6db 483e
000001a0: 46b1 0dbc 92be 60bd 73f3 ae3b 0339 94bd
000001b0: a872 903c 5da1 123e 6686 15bc 7270 31bc
000001c0: 5d09 063d 7462 83a0 8f6b 1bba 21dd da3c
000001d0: 7424 f1bd 0eaa 47bc 892d d8bd 0e0b 4f3e
000001e0: 0c25 f03d 7fc3 fc3d 1b5d 283d ee52 093e
000001f0: d81f 43be b007 0a3e b705 bebd d89f 873c
00000200: b7ac 0ebe 92aa 00bd c89f 38bd 6c4c 09be
00000210: 68b6 65bd 26c6 2bbd b65f 15be 1242 e4bd
00000220: 9e47 92a7 46fa 11be eb4c d03a ce9c 023d
00000230: 8138 a53d e19e 033e 38e5 94b8 16d0 37bd
00000240: 2239 0a3d fb21 30bd 12b0 4abc 8334 b03c
00000250: a53e 91bd d371 9fbd 266a 04bd 29c6 ccbd
00000260: 46c4 1dbc 9f46 b5bc 0f8d d53d e72c 063d
00000270: bd92 8299 fb8f ad3d 9960 033e d87d 31ba
00000280: cd13 16bb f21f 7ebe 2308 98bd 0936 1a3e
00000290: 661b 4fbb 7acb c6ba 3811 a8bd 6d73 793e
000002a0: cf40 223d 52ed 9a3d 4b97 a8bd 5585 143e
000002b0: 29dd a4bd 08c0 59bc 8a0f f93c fefc bfbd
000002c0: ef43 1abc 5d62 eebb 4ba1 b8bd 49e1 7e3d
000002d0: cf1e 9dbc 197e 8bbd 0ffa 02be 228c 8e3b
000002e0: 8af0 f7bd cbe2 ccbd 8f82 71bb 513b 18bd
000002f0: c58c 2b3e 83fb 86bd 59d2 24be 361f 903d
00000300: 4399 4cbe 6796 a23c c231 c0bd a2af de3c
00000310: ee0a 98bd 4c01 19bd 0602 fb3d 6405 4dbc
00000320: 20fa b5bd 63d8 d3bc 5dc6 653d 3ab6 bebb
00000330: 4b81 c53d c682 a73c c35c 9c3d 696d b8bd
00000340: 810a 03be ae08 193a b0db 403c f7ed 7dbd
00000350: a608 d83d c615 d7bb 2fe7 4fba 44ef 033e
00000360: ba21 0a3e f839 613b df16 47bc c7d1 a3bd
00000370: d8d8 b9bd 0a0b a13c a5dd ec3c b6ec 4e3e
00000380: 1703 8dbd fe19 653c 7f81 d2bb bfec 263e
00000390: f625 bcbd ef66 f6bd abae 0ebd 5b12 fcbc
000003a0: 2b93 863d b1b2 ccbd 5b77 9dbc 5424 a9bd
000003b0: a040 de3c 5e1f aebd c585 963d 8690 61bc
000003c0: bd16 833e 4fc4 3cbd 48f3 17bc 032f 04be
000003d0: 301a 57bd 0193 a53d e9f0 02bb 8dec cbbd
000003e0: 5ccc 58bc 6542 45bc ba52 bbbd 400d 443d
000003f0: 365e 62a1 42ff 043c 4737 1fbd ad3c f5bd
-0.06357553 -0.19775002 0.0732372 -0.04853557 -0.05731695 -0.11618384 -0.08669189 0.06947908
-0.16489783 -0.05337117 -0.08694393 0.010337379 -3.1148467e-21 -0.04281378 0.065966025 0.01925715
0.0040400173 0.060379114 -0.0029263725 -0.100522794 0.12939827 -0.05174157 -0.013784648 0.030290755
-0.1473605 -0.034370404 -0.005633766 -0.11064279 0.0661192 -0.10289802 0.055595707 -0.06859858
-0.045864858 -0.1036428 -0.070734896 0.08951429 0.0068854094 -9.224987e-14 -0.014129186 0.02595637
0.014818677 -0.020387657 0.026754968 -0.0151452385 -4.9758015e-14 -0.0659166 -0.09097665 0.07208665
-0.021897223 -0.020650066 0.047491163 -0.004552685 0.0020401638 -0.028425531 0.0916815 -0.13578042
-0.010717689 -0.015200721 -0.02482961 0.0306263 -0.107563525 0.037180983 -0.13429855 0.003623733
-0.057458363 -0.047431502 -0.1500656 -0.13778238 -0.049924444 -3.1761378e-08 -0.064210206 -0.023203367
-0.16215405 -0.18738149 -0.029046323 -0.096664555 -0.23453575 -0.07660686 0.06426853 -0.047809936
-0.026239494 0.057337638 -2.4531195e-11 0.11526787 0.048731234 -0.013003721 -5.169311e-09 -0.057843983
0.005455574 0.07464057 -0.067766346 -0.0026273122 0.025399601 -0.022953738 -0.14713973 0.1111544
-0.03587114 0.18878017 -0.020130433 -0.022719104 -0.0064654355 0.03786867 0.011953407 0.19615111
-0.008648222 -0.054869242 0.00533908 -0.072374366 0.017632797 0.14319368 -0.009126281 -0.010830032
0.032723773 -2.2257414e-19 -0.0005928808 0.02671677 -0.11774531 -0.01218654 -0.1055556 0.20219061
0.11725816 0.123419754 0.041104417 0.13410541 -0.19055116 0.13479495 -0.09278434 0.016555712
-0.13933073 -0.03141267 -0.045074254 -0.13408059 -0.05608216 -0.041937016 -0.14587292 -0.111454144
-4.060079e-15 -0.14255628 0.0015892064 0.03188782 0.08067418 0.12853576 -7.099885e-05 -0.04487618
0.033745892 -0.043001156 -0.01237108 0.021509415 -0.070920266 -0.07785382 -0.032327794 -0.099987336
-0.009629315 -0.022128401 0.104272954 0.032757666 -1.3500952e-23 0.08474728 0.12829818 -0.00067707663
-0.0022899986 -0.24816874 -0.07423427 0.15059675 -0.0031602024 -0.0015166842 -0.08206409 0.24360438
0.039612588 0.075647965 -0.08231982 0.14503987 -0.080499955 -0.013290413 0.030402917 -0.09374426
-0.009415611 -0.0072749094 -0.09015139 0.062226567 -0.01917973 -0.068111606 -0.12790702 0.004350201
-0.12106426 -0.10004195 -0.00368515 -0.037165944 0.16752918 -0.06590941 -0.16095866 0.07037203
-0.1998034 0.019847108 -0.093844905 0.027183358 -0.0742396 -0.037354752 0.12256245 -0.012513492
-0.08885598 -0.025860017 0.056097377 -0.005820063 0.09643801 0.0204481 0.076348804 -0.09005243
-0.12796976 0.000583778 0.011771128 -0.06199452 0.105485246 -0.006563875 -0.00079308724 0.12884241
0.13489428 0.0034366827 -0.012151449 -0.07998996 -0.09074563 0.019658584 0.028914282 0.20207486
-0.06885355 0.013983248 -0.0064241285 0.16301249 -0.09186928 -0.12031352 -0.034834545 -0.030770471
0.06571039 -0.0999502 -0.019221952 -0.08258882 0.027130425 -0.085020766 0.07349733 -0.013767367
0.25603285 -0.046085652 -0.009274311 -0.12908559 -0.05251521 0.080846794 -0.001998002 -0.09957228
-0.013232317 -0.0120397555 -0.09146638 0.0478642 -7.6696466e-19 0.008117499 -0.038871076 -0.119744636

dense_1.weight f4 [128, 256]
00000000: ada7 6e3a f54d 00bd e85d b6bd 36cf ffbd
00000010: 86f8 673d 3204 90bd c823 9b3d 39ac 5e3d
00000020: e6f0 06bd f7c4 fa3c 08d7 a9bd 8706 91be
00000030: 05c3 0180 c581 42bd 73c3 cdbd 6722 09be
00000040: 67fb 423e 50c1 db3c ce22 e0bd e0fc b1bd
00000050: 4746 3ebc c892 273e c399 e738 5728 e73d
00000060: f382 3e3e 9007 b3bd 235c 523d ec87 19be
00000070: 2f49 943c 1ffe 87be b39a edbd a223 aa3c
00000080: dc4a 493d e247 09be 752a d53d b6bd 81bd
00000090: b190 ecbd 0c0c eca1 5b8b dd3c 2df6 3c3e
000000a0: ca02 8f3c 753f 0fbe dd46 d3bd 6061 9c3d
000000b0: 6027 1d80 2128 623d 9899 d8bd 4304 933b
000000c0: f1f4 493e ea5f c53b 70f4 38be bcc0 ca3c
000000d0: d982 073e 2cb2 893e cb47 81be 04ad 5a3d
000000e0: 10ff a1be 22b5 fbbc ddc4 013e aa54 f93d
000000f0: 6396 113e 4690 213d 6e43 023e 219f 10be
00000100: 9888 ccbd 9c8b da3d 8d19 4dbe dacf 0ebd
00000110: 7b7d 8f3d 0e8a 3833 9077 71bd 42cf 2b3d
00000120: b35c d5bd 2a5e 2dbe 068c 5abd cbd9 5abe
00000130: 9267 8d3d c65d dabd 0769 d4bd d4af 5a3d
00000140: 7bb2 11bc 465e 9c3d b726 0300 387e ea3d
00000150: 21d7 34be df74 163d b15b 0a1b d415 0b3e
00000160: 161e 32be 0387 8cbd d9f2 d83c b14b eebd
00000170: 442e 713e 47dc a13d 4a94 023d 4139 b33d
00000180: 1f6d eebc 0cf8 aebd 0809 c5bb e069 cc3d
00000190: ea56 3bbe 8411 603e 6c78 83be c005 b63e
000001a0: cc84 a53d 83b4 d3bd d954 bcbd 1256 243e
000001b0: 70a6 52be a60a b8bd 3fcd 152f b343 a0bc
000001c0: 415f 03be 1be0 0d80 348d de36 83cb 993c
000001d0: 315a c13d 3b5b 62be 223c 3fbc 1237 103d
000001e0: 6e91 843d e9b2 123e 0cb1 88bd eb9a 84bd
000001f0: f455 18be e1c7 80bc 6059 123d 9208 823c
00000200: 902f 2d3e 0e9d f53b 652a 98bd 7950 553e
00000210: 5aff bebe 46e7 693d 0a94 1b3e 520e 4f3e
00000220: 4b99 5c32 54c6 64be f00d debd 773c 0abe
00000230: 54fc 293e d883 0abd 2ce4 fdb6 cedb 6ebe
00000240: eb41 8a3e 05c6 be3d 7135 a43c 8736 98bd
00000250: ece7 07bd 61fa 253d c3d0 873d d8b2 8b3d
00000260: 7f0d 893c 84ea 0d3e 05ba 51be 9ccf c73c
00000270: d0c9 0380 e8b0 13bd 814f 3f3d a3f9 b79d
00000280: fd7d ddbe 9eb5 dabd 78d9 c63c acf5 e9bd
00000290: ef38 7cbc 6bd6 eb3d ac92 803e 923a dfbd
000002a0: 8d03 c6bc a20a fa3d 20dc febd 2d73 8b3b
000002b0: 1c97 713b 4d2d fbbd d529 85bd ef07 ed3c
000002c0: d49f 01be 7d4f 953c 59ce 67bd d710 b43d
000002d0: d5e0 e3bd 6b79 9e3d b7bc 553e fdab b73c
000002e0: bb9a 7d3c 8494 edbd 2047 d63d fd41 92bd
000002f0: 9b40 6d3e 480b bf3c c204 043e 4553 3dbd
00000300: edce 623d df8c 30be 121d 3a3d 24d2 cdbd
00000310: 1651 eebe 284c d23c 0c22 3b3d c265 e4be
00000320: a931 f9bd a6a2 b33b aa8d 913d a670 88bc
00000330: cc56 35bd 7813 04be fee7 02ba 8574 de3c
00000340: e09d 46be 6982 403e c579 7ebd e557 b73b
00000350: c195 b83d 617b d63a 8aa0 213e 94d4 be3c
00000360: a911 f8bd 0111 aabc 46b6 ecbd a19f 8d3d
00000370: 4b1b ef3b c4ca 203e f6cd ce3d cd29 aabd
00000380: 5c77 29bd 860c a9bc 602e 53b7 0478 b03b
00000390: d80f eabd 2c3b b3bd 9b62 863e 6440 0bbd
000003a0: 2431 de3d 83fc 593d 2c81 bf3d beec cb3c
000003b0: 1055 1ebd f4c8 a73c 8a7e f63d c435 74be
000003c0: b751 b0bc 6427 e23d 447e 963d 9af9 c8bd
000003d0: b086 ca3d 0a16 1a3d d151 473c 3c0b 0fbe
000003e0: 62ad 40bd fef9 d43d 1183 6f3d 4a40 a63d
000003f0: 50a6 8fac aa0c 17be 5628 053d 2f86 ed3c
0.0009103965 -0.031324346 -0.0890463 -0.12490694 0.056633495 -0.0703205 0.07575184 0.054363463
-0.032944582 0.030611498 -0.08292967 -0.28325292 -1.61795e-40 -0.04748704 -0.100470446 -0.1339203
0.19041215 0.026825577 -0.109441385 -0.0869081 -0.011613435 0.16364586 0.00011043579 0.11286991
0.1860464 -0.08741677 0.0513574 -0.14993256 0.018101303 -0.26561067 -0.11601772 0.020768944
0.049143657 -0.13406327 0.10408489 -0.063350126 -0.11551035 -1.5995171e-18 0.027043989 0.18453284
0.017457385 -0.1398905 -0.103162505 0.0763576 -2.677354e-39 0.05521405 -0.10576171 0.004486592
0.19722344 0.0060233967 -0.18061996 0.024750106 0.13233508 0.26893747 -0.25250086 0.053387657
-0.3163991 -0.03072602 0.12672754 0.121743515 0.14217524 0.03944423 0.12721035 -0.14123203
-0.09986991 0.106711596 -0.20029278 -0.03486619 0.070063554 4.29664e-08 -0.058951914 0.041945703
-0.104180716 -0.16930452 -0.053356193 -0.21372144 0.0690452 -0.10662417 -0.10371595 0.05339034
-0.008892651 0.07635169 2.89395e-40 0.114498556 -0.1766019 0.03673255 1.144472e-22 0.13582546
-0.1739429 -0.06861689 0.026482986 -0.11635531 0.23552805 0.07903343 0.0318797 0.08751155
-0.029104767 -0.08543405 -0.0060130395 0.099811316 -0.18294874 0.21881682 -0.25677812 0.35551262
0.080819696 -0.10337164 -0.09195871 0.16048458 -0.20571303 -0.08986406 1.3624389e-10 -0.019563532
-0.12829305 -1.274255e-39 6.632554e-06 0.0187738 0.09441031 -0.22105114 -0.011672052 0.03520877
0.06473051 0.14326061 -0.06674394 -0.06474861 -0.14876539 -0.01572031 0.035729766 0.015873227
0.16912675 0.007495529 -0.07429961 0.20831479 -0.37304193 0.057105325 0.15193191 0.20220307
1.284054e-08 -0.22341281 -0.10842502 -0.13499628 0.16600162 -0.033817142 -7.5665503e-06 -0.23326036
0.27003416 0.09315113 0.020045014 -0.07432275 -0.033180162 0.040521983 0.06631615 0.06821221
0.016730068 0.13858992 -0.20481117 0.024390988 -3.47903e-40 -0.036057383 0.04670668 -4.8697815e-21
-0.43260184 -0.10679172 0.024273619 -0.11423811 -0.015394433 0.11515506 0.25111902 -0.10899843
-0.024171615 0.12209059 -0.12444329 0.0042556734 0.003686375 -0.122645 -0.065021195 0.028934447
-0.12658626 0.01822638 -0.056593273 0.087922744 -0.11126868 0.077380024 0.2087277 0.022420878
0.015478785 -0.11600593 0.10462785 -0.071414925 0.23169176 0.023320809 0.1289244 -0.04622199
0.05537312 -0.17241238 0.04543788 -0.10049847 -0.4654624 0.02567108 0.045686767 -0.44608885
-0.12167675 0.0054820357 0.071070984 -0.016655277 -0.04427223 -0.12898052 -0.0004993676 0.02715517
-0.19396162 0.18799748 -0.062127847 0.0055951946 0.09012938 0.0016363674 0.15783897 0.023294725
-0.121127434 -0.020760061 -0.115582034 0.069152124 0.0072969547 0.15702349 0.10097878 -0.08308754
-0.041373596 -0.020635854 -1.2587378e-05 0.0053854007 -0.11428803 -0.087515205 0.26247105 -0.033996955
0.108492166 0.05321933 0.093508095 0.02489316 -0.03865534 0.020481564 0.12035854 -0.23848635
-0.02152334 0.110426694 0.07348302 -0.09813233 0.09888971 0.037618674 0.012165503 -0.1396913
-0.04704035 0.10399245 0.058474604 0.08117731 -4.082769e-12 -0.14750925 0.03250917 0.028994648

dense_1.bias f4 [128]
00000000: a07c 343d c037 a83e be38 703d 4fbd 71bd
00000010: a971 863d 98eb a5be 7a32 7b3d 9429 94bd
00000020: 192d 9e3d 6d2e b43e d84a d3bd e827 13be
00000030: 1a1b 44be be06 413e 352a 79be 7800 8d3d
00000040: 3d5c 423e eb4d 003e 5c67 063a 5627 833c
00000050: 70f4 5cbd 925e 853e b7d9 13be 9816 adbb
00000060: d8a1 323e 3530 1dbe 4c8d 5b3d 4eda 143d
00000070: b7c4 5abb d9c6 16be f910 33bd 23f4 c1bd
00000080: b293 11be b18d 2cbc 9912 62bd 5fd6 0bbe
00000090: 0db0 963d 0df2 893e 0ff3 74bc 6911 b4bc
000000a0: 4ae4 8bbe 2464 13be bf1c 86bd 1ff6 953c
000000b0: 95e1 70be 64d7 513e 45c5 d33e 1790 67bd
000000c0: b99e d83d 6d45 d0bd e7c3 0cbd 2b71 f9bd
000000d0: 97aa c5bc 4799 68be 14e3 66be b497 5dbe
000000e0: 90a5 233e b3f5 723d 632c 55be 3633 a3ba
000000f0: 7ea4 12bd c2bf 443e f428 e6bd 03b7 0c3e
00000100: b429 30bc ec01 803c 8db5 0f3d 0252 83bd
00000110: d7df 43be d9d5 743e beea 7fbe 74e1 f4bd
00000120: a00e 703e 9596 5b3d 6388 5b3e f36f e7bd
00000130: 1059 1a3e 25ba 1e3e 1230 f93c 3e75 30be
00000140: 5e31 64be 2294 46be c2ca 96be b05f 3dbc
00000150: 2b3a f5bd 8eae ff3e 4823 203e e010 a53d
00000160: 222a 91be 2deb c7bd b266 2e3e b282 3bbe
00000170: bba5 22be 0e5b 033e e500 80be 0d4c f1bc
00000180: 6ded 22bc 0dd1 9e3d a3f9 a63b 0f57 30be
00000190: d878 11be 622f c8bd 91a8 14be f5bd 0cbe
000001a0: a148 2fbe c6b4 8abe 5d97 683e 0c74 4f3e
000001b0: a810 1fbd 41a3 823e 7a15 e13d dcf5 2dbd
000001c0: a0a2 1bbe 02ac 0b3e 2bf4 79be 2182 b0be
000001d0: af0c 47be 7f66 22be 63d1 243e 05d4 123c
000001e0: 8d38 d7bd 8d1f ee3d 58e3 e6bc 62af 5cbe
000001f0: cb80 4c3a dee9 fbbd dd14 88bc aec7 d6bd
0.044064164 0.32855034 0.058647864 -0.05901843 0.06564648 -0.32406306 0.061327435 -0.07234493
0.077234454 0.3519167 -0.1031701 -0.14370692 -0.19150963 0.18850228 -0.24332507 0.06884855
0.18980499 0.12529723 0.0005127096 0.016009968 -0.05394405 0.26048714 -0.1443852 -0.0052822344
0.17444551 -0.15350421 0.053601548 0.036341004 -0.0033381411 -0.14724292 -0.04371736 -0.094703935
-0.14216498 -0.010531829 -0.055193517 -0.13655995 0.07357798 0.26942483 -0.014950528 -0.021980958
-0.27322608 -0.1439367 -0.06548452 0.018305836 -0.23523553 0.20492321 0.41361442 -0.0565339
0.10577149 -0.10169492 -0.034366515 -0.12179788 -0.024129195 -0.2271472 -0.22547561 -0.21639901
0.15981126 0.05931635 -0.20817713 -0.0012451175 -0.035801403 0.19213775 -0.1123828 0.13741688
-0.01075213 0.015625916 0.03508525 -0.06412126 -0.19128357 0.23909701 -0.24991891 -0.11957064
0.23443079 0.053610403 0.21438746 -0.113006495 0.15073037 0.15500696 0.03041843 -0.17232224
-0.22284457 -0.19392446 -0.29451567 -0.011558458 -0.11973985 0.49937862 0.15638459 0.08059859
-0.28352457 -0.09761653 0.17031363 -0.18311575 -0.15883534 0.12827703 -0.25000682 -0.02945521
-0.009944302 0.07754717 0.005095677 -0.1722071 -0.14206254 -0.097746626 -0.14517428 -0.13744338
-0.1711755 -0.27091044 0.2271399 0.20259112 -0.038834244 0.25515178 0.109904245 -0.042470798
-0.15198755 0.13639835 -0.24409549 -0.3447428 -0.19438432 -0.15859412 0.160955 0.008961682
-0.10508833 0.116271116 -0.028184578 -0.21551278 0.0007801174 -0.12300466 -0.01661151 -0.10487305

dense_2.weight f4 [64, 128]
00000000: b33d cdbd 5662 35be 4280 25be 65d5 6d3d
00000010: 1004 9ebd 644d 8c3d 600a 89bc 5cb9 463e
00000020: 7a84 17bd aa05 86bd 41f3 ac3d fc22 71bd
00000030: e2e8 843d 84bf b2bb 377e 423a 7fea 7ebd
00000040: 2885 d73c d52e ddbd 6fe1 38be b1d4 99bc
00000050: 6cb2 bb3b 73ee febd b3e7 8b3c 14bb ef3c
00000060: 206c a8bd d178 d93a 9c61 8cbc 698a 30bc
00000070: 5d7c 1c3c 9769 cabd 5d41 f53c ce80 4ebd
00000080: 2b13 843d ee83 6fbc f494 ebbd 332e 013c
00000090: eba5 15be 412d d2bd 1f83 fa3a e179 8e3d
000000a0: a72a 44bd 7fce ec3c 25ba 37bd 3100 e33c
000000b0: c658 2a3d 8e8b 213d 9c81 36be dd9b da3d
000000c0: b245 f4bd 6d58 a3b5 e3fe ecbc c963 143e
000000d0: 0b9a 64bd e500 483d 9809 5f3d 9280 5a3e
000000e0: 2cd8 a9bd 677e 2fbc ba70 08bd 6d2c 1bbd
000000f0: 9b6d ce3b 89c5 a9bd a34e 55b9 af1c 78be
00000100: 080d 85bd 4c16 b43d af9f ae3d e4ea 70bc
00000110: c75c 81bb 2887 d2bd 0761 5cbd f803 adbd
00000120: 0405 cc3c c6db 87be 8e24 1ebe 6928 833d
00000130: a0cf 0e3d 502a 74bc c8af fbbb 1e55 b9bb
00000140: e840 6c3d c7fb 6c3b ddcb 60bd 3553 6ebd
00000150: 7613 c0bd f9f0 fabc ef6f 013e f7a3 f6bd
00000160: 4aa5 cdbc a3aa 5a3b 1fab ebbd cadd 7fbc
00000170: 6ff8 893d 91a8 d9bc d317 99bd 9a97 2dbd
00000180: d71a c5bd c34d 0ebe fdda 60bd 2c82 0fbd
00000190: 7bed b03c 6b6b 0436 f2c5 e0bc 21c0 4bbe
000001a0: ca8b 91bd 0484 89bd a453 0ebe 126d f3bd
000001b0: 5061 d2bd f97d 39be 6c3b a3bc 760d 35bc
000001c0: 66bc 1b3c b771 9c3d cd91 69be 4ba4 37be
000001d0: ee6d 07be 5579 50bc d018 b9bd b5f1 88bd
000001e0: 2b1e c8bd 3c2e 4f3b a5bd cebd 0fd1 49bd
000001f0: 1ea6 17be 6722 e6bd 61c3 b9bc 4431 2bbd
00000200: 50be 553e ad49 13be 4c27 0d3b f7ee bc3d
00000210: b6cc c7bd ed3e 70bd 0723 a8bc 19d6 4a3d
00000220: 60fd 99bd 0fce 5b3d cf93 a13d bbb5 a73d
00000230: e220 0e3e bef0 b2bd f35a dd3c d9ea b6bd
00000240: b4e9 c33d 79f6 9a3d 2347 4ebd d5ca 3c3e
00000250: ab17 603a a990 16bd a32d 163e 1542 56bd
00000260: 2da1 6abd 8adf b9bb 3a5c 083d 7138 fb3d
00000270: c7ab a6be 937f 193c 211c f9bd 30dd d7bd
00000280: a3d3 bf3d a227 b6bd 80ec 403e 11fe 323e
00000290: 5195 bc3c e856 b33d 4ac9 e6bd 6b8b e43d
000002a0: 05a2 1ebe c5df 913e f6b1 dfbd 2b8b 9ebe
000002b0: c88f 593d 7f28 083c 477a 16bd 2f56 5bbe
000002c0: 1b3e 87bc 430f 1e3c 85db 55be 880a d53d
000002d0: de42 6fbd 4ba5 153e dfd0 cdbb f312 283e
000002e0: 05b1 b7be 7a0c a73b d0d8 a4be 2420 853d
000002f0: 198a 813c 95c6 50bc af8e 0f3e 1b20 9fbd
00000300: 1477 163e 9d39 723e 9710 d6bc 02d8 4e3e
00000310: 0456 1f3d e9d2 bf3d 5ff9 e23d d9f1 303e
00000320: 87ff 98be 9a3f 29bb a643 c03c e37f 4a3d
00000330: 5fa5 38be 4187 c8bd 50b4 eabd f484 bdbb
00000340: 9603 a43c a0c2 18bd f3d9 d83d e8b7 dd3c
00000350: 255d 8a3d e4d9 f53d 489d 5fbd 5d56 203e
00000360: a038 5f3e 2416 043e 0d9f a03c e6a6 283e
00000370: ca1a 513e b9a0 2c3e 47c3 af3d 2bbb 013e
00000380: d8f9 32be 191b f6bd 4b1c a13c 3599 b33d
00000390: 4c8f 2dbd 5258 94bc 6489 ac3c 0e85 55bd
000003a0: 2d12 33bc a541 2fbe a333 bc3c a5a1 0dbd
000003b0: 97e1 063e 7616 49be fc61 f2bc d320 8e3c
000003c0: 40ca f73a f674 4c3c e469 8dbd 71b3 06bd
000003d0: d666 c8bd 0f3f 533e e746 15bd 3185 b53c
000003e0: 1c84 fa3c f1c2 78bd 42f9 8b3d 1636 1b3e
000003f0: 2feb d0bd 1cb1 753c 3463 d9bd 641b 9b3d
-0.10021534 -0.17713293 -0.16162208 0.058064837 -0.077156186 0.068506986 -0.01672858 0.19406646
-0.036991574 -0.06544049 0.084448345 -0.058871254 0.06489731 -0.0054549593 0.000741932 -0.06223535
0.026308611 -0.10799948 -0.18054746 -0.018778177 0.0057280567 -0.12447824 0.017078256 0.02926401
-0.08223748 0.0016591792 -0.017136388 -0.010775187 0.009551135 -0.09883421 0.029938394 -0.050415806
0.064489685 -0.014618857 -0.1150302 0.00788455 -0.14614074 -0.10262538 0.0019112563 0.0695684
-0.04789224 0.028907059 -0.044855256 0.027710052 0.041588567 0.03943973 -0.1782288 0.1067426
-0.11927356 -1.2170182e-06 -0.028930133 0.1449119 -0.05581097 0.048828978 0.05445251 0.21338108
-0.08293185 -0.010711289 -0.03331063 -0.037884165 0.006299687 -0.0828963 -0.00020342557 -0.24229692
-0.06496626 0.08793315 0.08526551 -0.01470444 -0.0039478275 -0.10279685 -0.05380347 -0.084480226
0.024904735 -0.2653486 -0.15443632 0.06404192 0.034865975 -0.014902666 -0.007680867 -0.0056558987
0.057679087 0.0036160813 -0.05488192 -0.05818482 -0.09378712 -0.030632483 0.12640356 -0.120429926
-0.02510323 0.0033365868 -0.11507248 -0.0156168435 0.06736838 -0.026569637 -0.07475247 -0.042380907
-0.0962426 -0.13896851 -0.054896343 -0.03503625 0.021597615 1.9732058e-06 -0.027438138 -0.1989751
-0.07106741 -0.06714633 -0.13899094 -0.11886038 -0.10272467 -0.18114461 -0.019925795 -0.011050573
0.009505367 0.07638877 -0.22809525 -0.17933767 -0.13225529 -0.01272424 -0.09037936 -0.06686727
-0.09771379 0.0031613251 -0.100947656 -0.04927164 -0.14809462 -0.112370305 -0.022676172 -0.04179503
0.2087338 -0.14383574 0.0021538315 0.092252664 -0.097558424 -0.05865376 -0.020524515 0.049520586
-0.075190306 0.05366331 0.078895204 0.08188959 0.13879731 -0.08737324 0.027020907 -0.089315124
0.0956606 0.07566542 -0.05036081 0.1843675 0.00085484487 -0.036759052 0.14665847 -0.052309114
-0.057282615 -0.0056724 0.03329108 0.12266625 -0.3255293 0.009368795 -0.12163568 -0.10540235
0.093665384 -0.08894278 0.18840218 0.17479731 0.023020418 0.087568104 -0.112688616 0.11159404
-0.15491493 0.28491035 -0.10922615 -0.30965552 0.053115636 0.008310436 -0.036737707 -0.21419595
-0.016509106 0.009647193 -0.20884521 0.10402399 -0.05841338 0.14613836 -0.006281003 0.16413479
-0.35877243 0.005097923 -0.32196665 0.06500271 0.01581292 -0.012742658 0.14019273 -0.077697955
0.14693862 0.2365479 -0.026130958 0.20199588 0.03890039 0.093664 0.1108272 0.17279758
-0.29882452 -0.0025825263 0.023469757 0.04943837 -0.18031834 -0.09791423 -0.11460173 -0.0057836715
0.020021241 -0.037294984 0.105884455 0.027065232 0.06756047 0.1200445 -0.054593354 0.15657945
0.21798944 0.12899071 0.019607091 0.16469917 0.20420375 0.16858186 0.08582168 0.12669055
-0.1747812 -0.12016887 0.019666811 0.08769456 -0.042372987 -0.01810852 0.021061607 -0.052128844
-0.010929626 -0.17114885 0.022973841 -0.034577984 0.13171993 -0.19637474 -0.029587738 0.017349636
0.001890488 0.012479058 -0.06904963 -0.032885972 -0.097852394 0.20629524 -0.03644457 0.022158237
0.030580573 -0.060732786 0.068346515 0.15157351 -0.10201108 0.014995839 -0.106146246 0.07573584

dense_2.bias f4 [64]
00000000: 40f7 06be a3bc 53bd ea46 893d 705f 463d
00000010: 0628 a63e 4001 5dbc 8780 a4bd 8160 77be
00000020: 58fe 22be a954 9b3d 9235 9c3e be59 52bd
00000030: 5759 7c3e 73e2 643e 20c3 5c3e 433a e6bd
00000040: b629 cfbd 2fcc 4d3e b579 6d3e f2ed 57bc
00000050: 5fb4 a2bd 9aa1 d93c ff80 b5bd 5d52 3fbc
00000060: 47a1 7ebd 4cf2 14bc 581e 893c e309 3ebe
00000070: cd99 b4bd 0a76 00bd 120c a7bd d71c c5bd
00000080: 510f 6a3d 8f9e e13c e9e4 ea3d b3fd a43e
00000090: 8df5 9a3e fb55 0fbe 109c d73e 9022 193d
000000a0: 68d5 44be d0b7 9cbc 3bf7 5f3e 28d0 afbc
000000b0: 52c6 01b9 cb44 8dbd 1229 ed3a 71ce 43bd
000000c0: 2e1c 073e fd4a 063e d2f8 063e 845c 243c
000000d0: 327d db3e bcbd c5bd e60d 8e3e 5bcc b83b
000000e0: 96ce b6bd 6eeb 5ebd 2864 84be d32d 3ebd
000000f0: 7a96 313d f730 a3bd 1dc3 69bd 60e1 073f
-0.13180256 -0.05169357 0.06702979 0.04843086 0.3245241 -0.013489068 -0.08032327 -0.24157907
-0.15917337 0.07584507 0.3050962 -0.051355116 0.24643455 0.22352009 0.2155881 -0.11241581
-0.101153776 0.20097421 0.23190959 -0.013179289 -0.07944559 0.026566315 -0.08862495 -0.011677352
-0.062165525 -0.009090971 0.016738102 -0.18558459 -0.08818398 -0.03136257 -0.08156599 -0.096246414
0.057143513 0.027541427 0.114694424 0.32224807 0.30265465 -0.13997643 0.42111254 0.037386477
-0.19222033 -0.019130617 0.21871655 -0.021461561 -0.00012376279 -0.06897887 0.0018093905 -0.0478043
0.13194343 0.13114543 0.13180855 0.010031823 0.42868954 -0.096553296 0.2774498 0.0056395954
-0.08926122 -0.054423742 -0.25857663 -0.04643042 0.043356396 -0.07968324 -0.05707084 0.5307827

dense_3.weight f4 [10, 64]
00000000: 212b e93c bbf5 df3d 1df3 9a3d 9b43 08bf
00000010: 8330 f73d 453a b43c 7e5b 7fbd 474f 363d
00000020: a963 da3d 1354 fdbd e3a4 b33d 7872 87be
00000030: 63da e2bc 5aee 9a3d be14 8ebe 2ec7 83bd
00000040: 61fb 053e a122 cfbe 91d4 4bbe 70c8 16bf
00000050: 5ebe 313b 1491 c6be 39c1 f7be b33c 083e
00000060: 392e d0bd ce60 17be c7c1 cdbe f78c c8be
00000070: 9368 4cbe 54fa 33be 79a2 803d bd49 ef3c
00000080: 3f0e 833d fac4 3c3c 8090 09bf 6b72 913d
00000090: e8ac aabe 989e 0f3c 6b69 b9be 6da8 4d3e
000000a0: 03b1 873d 7858 96bd 6d7f 79be 4f00 61be
000000b0: 1be3 aa3d eaed b6bc 2c0e ccbc 4c8f 9dbe
000000c0: 8a2d c33d 700f 913e 943c d1bd ce03 9bbe
000000d0: a2f0 a73d 3672 5e3d 62da 883d 9013 95be
000000e0: c7a0 c53d 869e 53bc e999 8ebd 4b38 18be
000000f0: 7806 f0be ed79 7bbe 609c 08be 1d0a e2be
00000100: 3c56 debd d610 d83d 0460 343d f918 b2be
00000110: 1cb8 8bbe 4e77 a3be 98fe 3ebb d72f 163c
00000120: b332 26be 3dc0 abbb 9cbe dfbe 8514 b63d
00000130: 8286 6f3e 9003 b5be ab78 fdbc 142c 31be
00000140: a8b3 3e3e fd51 423e 8db5 dabd f8ef 33be
00000150: 1eef 623d ea58 d63d ce10 aa3d f3f3 d9be
00000160: a5e0 4f3c f6d6 663d ccc6 7a3d 7c4d d23d
00000170: 4911 823d 6a8e 963d 23f3 a2bd 8b1c 5fbe
00000180: 37c8 d4be dfcd b6be 23a7 aabd f31e adbe
00000190: 5ee7 01be 85d9 4b3d 79a8 64bd 0ce5 80be
000001a0: e071 a0bc 30a8 13bd 45ff fe3d 21f7 5abd
000001b0: 6e35 e03d 1d62 2dbd e950 acbe 6571 603d
000001c0: 6dc9 03bf 8250 313e f937 7c3d cd28 483d
000001d0: d01b 65be 19a4 f83c e02f efbc 02eb 9cbe
000001e0: 4882 f93d ca3f 62bc 6c51 b23d 9aa0 173e
000001f0: 2b1e d63d 03a8 76bd 212a e4bd 08e7 a4be
00000200: b52d 12be 6a40 cdbe c3cb 623d d835 533e
00000210: 107e 07ba c69d 0b3d 2038 06bd 13d3 093d
00000220: 9ac5 f9be 091e a5be 2be4 123d 2886 1ebc
00000230: 170f 25be 26d6 16be 9461 c03d e025 24bd
00000240: e169 7cbb a343 febe cde9 51be 15fe c0be
00000250: ebc9 c8bd 2170 afbe 5021 f2bd 7428 063d
00000260: fa54 d6bb 8c24 71be ac49 0abf 6415 e93d
00000270: 6bbf f23d 6529 1cbe 51f0 bf3c 1416 3a3e
00000280: 54f7 a6be 679d a13c 6130 d93c 89f7 0e3e
00000290: 9bbc eebd 75a3 a23d b33b 99be 2897 a8bd
000002a0: 64e1 2ebe 1633 2bbd c4da 533b 2d76 74be
000002b0: d028 b23d 6e7b 89bd 037f a2be bee5 a3bd
000002c0: af3c 16be 3f80 e1bd d21e 2f3e 8352 afbc
000002d0: 5b43 563d f10e 85bd eedb 113d 0dcb ad3d
000002e0: 198c ab3c 5de8 66bc 91ec acbe fe41 4fbc
000002f0: 847d 34be df5c 933d 02ae 923e 6ea0 85be
00000300: 6f1a 9abd 1b24 71be 21f8 cdbe a467 e9bd
00000310: 3ed6 d23d a8d0 d4be 7dea c0bc 00a7 8bbd
00000320: 91fa 59be 12b9 8ebe a748 bd3d 4515 fbbd
00000330: 8c23 86be 95a1 8fbe 9552 13bc f984 4bbe
00000340: b015 8bbe 4343 9dbe 95eb 853d 06a8 f43d
00000350: 2f52 c73b 8cff 813d b6ed cd3d 1a06 d2bd
00000360: 2870 1dbd fd4f fdbd a6b0 5ebe 90a4 ffbd
00000370: 157b 2fbe 1ee4 173e 25cf a7bc 2c89 693e
00000380: 09dc 85bd beb5 063e 6f49 073e 440b 753d
00000390: f779 9cbc a6d1 00bc 0836 003e 0510 1ebe
000003a0: d9ef e5bd e813 1bba 617c 4b3d 3586 11be
000003b0: 8ba9 babc a057 77bd f38e c03d 7cbd 76bd
000003c0: c20d 803d 99be 5fbe 3d93 403d c4f4 333d
000003d0: 346e 993d 23d4 243d 0497 0c3d 5936 7b3c
000003e0: 251f 5a3d 08da 39b7 c8a6 4abd d299 c5bd
000003f0: 1e45 e63d a84a 60be 19c3 63bd 2d2e 6ebe
0.028462948 0.10935541 0.075659014 -0.5322816 0.120698 0.022000441 -0.062343113 0.0445092
0.1066354 -0.123695515 0.08771684 -0.2645452 -0.027692026 0.07564993 -0.277502 -0.06434475
0.13084175 -0.40456107 -0.19905306 -0.58899593 0.0027121524 -0.3878256 -0.48389605 0.13304405
-0.10165066 -0.14783022 -0.40186903 -0.39170048 -0.19961767 -0.17575961 0.06280989 0.029209966
0.063992016 0.011521572 -0.53736115 0.071019016 -0.33335042 0.008765839 -0.3621324 0.2008378
0.06625559 -0.07341093 -0.24365015 -0.21972774 0.08344098 -0.022330243 -0.024909101 -0.3077339
0.0953017 0.2833209 -0.102166325 -0.3027634 0.08200194 0.05430814 0.06682278 -0.29116488
0.096498065 -0.012916213 -0.0696295 -0.14865224 -0.46879935 -0.2455823 -0.13340902 -0.4414834
-0.10856292 0.10550086 0.04403688 -0.34784678 -0.27288902 -0.3192696 -0.002914345 0.009166679
-0.16230278 -0.0052414224 -0.4370011 0.088906325 0.23391154 -0.3535428 -0.030941328 -0.1730197
0.18623221 0.18976589 -0.10679159 -0.1757201 0.05540382 0.10466178 0.083039865 -0.4256893
0.012687837 0.056357346 0.061224744 0.10268685 0.06350953 0.07351382 -0.07956531 -0.21788232
-0.41559002 -0.35703942 -0.0833266 -0.33812675 -0.12685916 0.04976799 -0.05582473 -0.2517475
-0.01958555 -0.036049068 0.124510325 -0.053458337 0.10947691 -0.042329896 -0.3365548 0.05479564
-0.51479226 0.17315868 0.061576817 0.048867036 -0.22373891 0.030351685 -0.029197633 -0.30648047
0.12183052 -0.013809154 0.08706936 0.14807358 0.10454973 -0.060218822 -0.11140848 -0.32207513
-0.14275248 -0.40088207 0.055370104 0.20626009 -0.0005168626 0.03408601 -0.03276837 0.03364856
-0.4878357 -0.32249478 0.03586213 -0.00967554 -0.16119038 -0.14730129 0.093936116 -0.040075183
-0.0038515257 -0.49660978 -0.20499344 -0.3769385 -0.09804138 -0.34265235 -0.1182276 0.032753423
-0.0065408917 -0.23549098 -0.54018664 0.11381033 0.11852916 -0.15250166 0.023430021 0.18172485
-0.3261057 0.019728376 0.026512327 0.13961615 -0.116570674 0.07941333 -0.2992836 -0.08231956
-0.17078167 -0.041796766 0.003232644 -0.23873205 0.086991906 -0.067129955 -0.31737527 -0.08002804
-0.14671586 -0.11010789 0.17101601 -0.02140165 0.05231033 -0.064969905 0.035610132 0.084859945
0.020940827 -0.014093486 -0.33774236 -0.012650011 -0.17626005 0.07195448 0.28648382 -0.2609896
-0.07524573 -0.2354893 -0.4022837 -0.11396721 0.1029477 -0.41565442 -0.023549313 -0.06818962
-0.2128699 -0.27875572 0.09242373 -0.12259916 -0.26198995 -0.28052965 -0.008991857 -0.19874944
-0.27164984 -0.3071538 0.06539074 0.119461104 0.006082795 0.0634757 0.100551054 -0.1025507
-0.03843704 -0.12368772 -0.21747074 -0.1248256 -0.17136796 0.14833114 -0.020484516 0.22806233
-0.06536109 0.13155267 0.13211606 0.059825197 -0.019101126 -0.007862484 0.12520611 -0.15435798
-0.11227388 -0.0005915747 0.049679164 -0.14211352 -0.022785923 -0.0603863 0.094022654 -0.0602393
0.06252624 -0.21850051 0.047015417 0.0439346 0.07491723 0.04024137 0.034323707 0.015332782
0.053252358 -1.1077624e-05 -0.04947546 -0.096484795 0.11243652 -0.21903479 -0.05560598 -0.23259802

dense_3.bias f4 [10]
00000000: bc99 5bbb 7aed 8bbe bb85 93bc 7ca8 f2bd
00000010: 4bc2 27bd 9f36 433d f5ce 52be 3417 2abe
00000020: b8ae f43e 8cbb 593e
-0.003350838 -0.27329618 -0.018008104 -0.11848542 -0.040956777 0.047659513 -0.2058676 -0.16610414
0.4778955 0.2126295
