models/tiny_fc_model.pth (torch, 214859 bytes, 8 tensors)

dense_0.weight f4 [64, 784]
00000000: 03b3 1380 34f4 0000 f2d0 0180 b344 0c00
00000010: 6b6e 0800 9ba5 0600 1384 0580 8ee1 1500
00000020: 5b64 0a80 d388 1000 3317 1080 347b 0080
00000030: 219d 0580 ea73 4538 ea73 4538 48d8 0000
00000040: 050e 0d00 6f8b 0700 0122 0580 5be7 0780
00000050: 348b 1200 1e2f 0300 92f1 0a80 c8a0 0700
00000060: aba8 1580 8b4e 1000 3e38 1100 ae90 0380
00000070: 51cb 0600 cdcc 1180 27ab 0e00 b972 0680
00000080: 752a 0a80 1505 0180 7770 0c00 7cdb 949d
00000090: 94b8 fe1d 3b7d 7bae 8095 2bae 59b4 fd2f
000000a0: d7e0 9c2f fea7 b13c 31e1 ca3c b086 a53c
000000b0: 4588 363b cbb2 b33b a69d 013a 87eb ab39
000000c0: 0897 6d29 4a93 0680 8367 0580 756d 0600
000000d0: 460f 1080 4584 0c80 d5d6 0c00 2b1a 0a80
000000e0: 0f98 0c80 561b 1400 4df8 0880 b15c 0b00
000000f0: 1c8a 07a3 4f91 58ae 51b7 97ba a524 b8b6
00000100: 53e3 1c3c 3a66 9a3c 454e 4f3c 9d7b 5e3d
00000110: b498 d53d 233d d23d 0bd3 563e be67 673e
00000120: c20d 6a3e 7e80 743e d1af 443e 74e7 413d
00000130: 2b56 213d 2316 cc3c 559f 1f3b 8b34 c838
00000140: 772f b0b9 13f8 78b8 afb4 1000 5fb8 1580
00000150: f90c 1180 7941 0c00 e152 1f3c 32d7 3439
00000160: ec15 9db9 7548 323b 5739 ae3c 7d12 a93c
00000170: 311d ab3d cdf1 243e fe70 953d e93a 233e
00000180: bc4c 713e 21a2 e13d 93c0 4fbc 8189 683e
00000190: 8fab 893e b600 8e3e 1e9b c03e 5d56 d63d
000001a0: 2a18 1fbd 1d06 053e 2bdc 3f3e 714b 413e
000001b0: 5015 1d3e b731 7cbc e63e 06bc c860 0900
000001c0: 9453 1180 c30a 0a00 cfd1 b83c 44d5 fb3b
000001d0: 4f66 da3b 29f8 a33d 9fab 8f3d 0ace dfbb
000001e0: d57e 76bc 71ae 8b3d edff 4c3e 8318 9a3e
000001f0: 7b81 963e e72f aa3c 7521 973e 8281 ff3d
00000200: af0c 463e 8012 3e3e daf9 2b3e 472b a43d
00000210: d7c8 5e3e fa2d a63d 897a dfbd dbce babd
00000220: 451b 3c3e 625c d23c 37e9 cebc 0918 95bb
00000230: 1e00 0b00 172f 1280 89d5 263b 0711 0c3d
00000240: 1251 013d 901d 00be 0fab 57be 38c5 02be
00000250: f6b4 90be 3d0c bbbe e273 1d3d 24a7 e53d
00000260: 3e6e e03c 9c2e abbd 42e2 21bd c995 893d
00000270: cf86 b33d 8f5e 2a3e 5a80 353e 84ac 8f3e
00000280: e33c 9b3e 92b2 be3e 0949 6e3e 333e 193d
00000290: 60e0 c53c 15ba 7b3d 4811 abbc 8b40 0bbc
000002a0: fd24 1000 e213 c926 85c5 45bc 15b5 3a3d
000002b0: 2e28 673d 9bbd 6dbe e815 7fbe 01a5 cdbd
000002c0: fa36 2ebe 5ffd 93bd 0939 113b 51d2 0a3e
000002d0: 6dbe 863d bca5 88bc 8c9c a73d 8105 303e
000002e0: f245 153e 7f53 813e 4670 493e def4 c83c
000002f0: 9e36 5a3d 5780 a33d 5936 bd3c ec1b 323c
00000300: 0f47 94bd be14 363e a4bc 65bd 0db8 043b
00000310: 62d1 1500 6ad9 b139 bd96 9ebc ede7 80bc
00000320: ffa2 1e3d d773 a7bd 0ce8 efbd fb9e ccbd
00000330: 77c4 073e ad23 8f3d 8039 b53d aaa9 0b3e
00000340: 3bc7 773d 189c 313c 2c4c 0b3d 6d5d aa3e
00000350: e835 733e ce1e 953d f3ab fa3d 8456 a5bb
00000360: cf57 02be 842d 6ebc 16de d43d 2a9b 5cbd
00000370: f551 02be 4c4e aabd 0f3f 83bd 5f38 0b3a
00000380: aefb 0b00 32ac 4fa7 0626 0ebd 1fe3 c5bc
00000390: e960 cc3d 425d 11be 2c0c 173d 177d 1e3e
000003a0: 6cb7 cc3d b07f 4abd e85f f73c d8ee 1d3e
000003b0: b8cf 063e 85b9 fb3d 9e93 6f3d 7cbd 863d
000003c0: 9d47 ce3d cb9a cb3d 1e9c 81bd e11b 4b3c
000003d0: 4e02 01be f8ce 87be 0c2d 193d e1ab ee3d
000003e0: 4734 90bd 9aab 51be 5ee8 893d e57e fc29
000003f0: 827e 1080 6a6e 0180 7d7a 0aba 6acd ea3c
-1.809092e-39 8.7604e-41 -1.66791e-40 1.12667e-39 7.74294e-40 6.10421e-40 -5.06557e-40 2.009459e-39
-9.54356e-40 1.518451e-39 -1.47769e-39 -4.4197e-41 -5.15545e-40 4.7076413e-05 4.7076413e-05 7.7587e-41
1.198891e-39 6.92868e-40 -4.71376e-40 -7.25843e-40 1.702976e-39 2.92409e-40 -1.005014e-39 7.00526e-40
-1.989052e-39 1.497544e-39 1.58138e-39 -3.27408e-40 6.23949e-40 -1.634672e-39 1.347095e-39 -5.92168e-40
-9.33586e-40 -9.3659e-41 1.142371e-39 -3.9402215e-21 6.742409e-21 -5.718202e-11 -3.901368e-11 4.6148577e-10
2.8535993e-10 0.02168655 0.024765583 0.020205826 0.002785222 0.0054839603 0.0004944451 0.00032791143
5.275557e-14 -6.0385e-40 -4.9631e-40 5.90279e-40 -1.474847e-39 -1.149475e-39 1.179093e-39 -9.27742e-40
-1.156574e-39 1.846516e-39 -8.23758e-40 1.043442e-39 -7.3476105e-18 -4.9241774e-11 -0.0011575018 -5.4878933e-06
0.009575683 0.018847574 0.012652938 0.054317106 0.104295164 0.10265567 0.20978944 0.22598168
0.2285681 0.23877141 0.19207694 0.04733987 0.039388817 0.0249129 0.0024356444 9.54653e-05
-0.000336047 -5.9358845e-05 1.534185e-39 -1.994685e-39 -1.565857e-39 1.125513e-39 0.00972435 0.00017246304
-0.00029961707 0.0027203832 0.021267576 0.020638699 0.08355177 0.16107865 0.07296942 0.15940441
0.23564428 0.11017252 -0.012680191 0.22708704 0.268887 0.27734917 0.37618345 0.10465691
-0.038841404 0.12990613 0.18736331 0.18876435 0.15340161 -0.015392712 -0.008193707 8.61238e-40
-1.591186e-39 9.22216e-40 0.022560982 0.0076853354 0.006665028 0.08006317 0.07015156 -0.0068299817
-0.015044888 0.068203814 0.20019503 0.30096826 0.2939566 0.020774795 0.29517713 0.124758735
0.19340776 0.18561745 0.1679453 0.08016067 0.21756302 0.08114238 -0.109120436 -0.09121486
0.18369778 0.025678817 -0.02525769 -0.0045499844 1.010232e-39 -1.669932e-39 0.0025456867 0.034195926
0.031571455 -0.12511277 -0.21061347 -0.12770545 -0.28263062 -0.36532775 0.038440593 0.1121352
0.027396318 -0.083584994 -0.039522417 0.067180224 0.08765947 0.16637634 0.17724743 0.28061306
0.3031989 0.37245613 0.23270048 0.037412833 0.024154842 0.06145676 -0.020882264 -0.008499275
1.482637e-39 1.3952566e-15 -0.012071018 0.04558285 0.056434803 -0.2321686 -0.249107 -0.100412376
-0.1701316 -0.07226061 0.002215924 0.13556792 0.065792896 -0.01668059 0.08184156 0.171896
0.14577463 0.25259015 0.19671735 0.024530824 0.053274743 0.07983463 0.023097204 0.010870915
-0.07240116 0.1778135 -0.056088105 0.0020251304 2.003658e-39 0.00033922057 -0.019358987 -0.01573559
0.038729664 -0.081763916 -0.11714181 -0.099912606 0.13258539 0.069892265 0.08848858 0.1363894
0.060492735 0.010840438 0.03400819 0.33274403 0.23751032 0.07281266 0.12239828 -0.005045714
-0.12728809 -0.014537219 0.10393922 -0.053858913 -0.12726577 -0.08315715 -0.06408512 0.0005310829
1.100476e-39 -2.8820368e-15 -0.03470423 -0.024156151 0.09979422 -0.14195731 0.036876842 0.15477405
0.099959224 -0.04943818 0.030197099 0.15423143 0.13165176 0.122912444 0.058490388 0.0657911
0.10072253 0.09941634 -0.06328605 0.012396784 -0.12598535 -0.26525092 0.037396476 0.11653877
-0.07041221 -0.20475617 0.06733774 1.1213061e-13 -1.51475e-39 -1.31445e-40 -0.00052825344 0.028662402

dense_0.bias f4 [64]
00000000: 9a0d d2bd 2ab9 d13d 64ce 8d3c 0874 363e
00000010: 0ff1 8b3e dca9 963d 12f7 f43d 5275 1b3d
00000020: 4a10 243e 5845 213d 3e0e 1fbe e38e 62bd
00000030: e2bd 4a3c 234f 7abd eeb4 4b3d 19d0 10be
00000040: 1fcf 61be 1c97 c13d 67c5 dbba 990b c43d
00000050: 187b 883e e5d6 fe3d fca8 30be 53b5 4bbe
00000060: 919e 333e 2bb5 52be 113b 44bc c3ad ecb9
00000070: 8b12 1cbd 566b 05be 8021 17be 7d7f 92bd
00000080: d8c5 17bd c805 e53d 9107 e93d b6aa 5b3e
00000090: b60b c63c 2a93 65be 4912 43be 0018 c33e
000000a0: 2aea 92bc 6c90 1b3e 2831 8a3e 56bd cc3d
000000b0: 7ae5 c8bd 5877 0b3d 965c ad3c 1c80 21be
000000c0: 8707 123e dea2 103e 4754 b13d e89a 313e
000000d0: 1d8d 393c 2b9d dc3c eeac 803e 78b6 299e
000000e0: be01 183e 2673 173b b76d 413c 3d17 653e
000000f0: dec0 e8bd b59a 8fbd c84d aabc 9cc9 08be
-0.102565005 0.10240395 0.017310329 0.178177 0.2733235 0.07356617 0.119611874 0.037953682
0.16021839 0.039372772 -0.15532777 -0.05531205 0.012374373 -0.061110627 0.049733095 -0.14141883
-0.22051667 0.0945265 -0.0016767205 0.095725246 0.26656413 0.12443332 -0.17251962 -0.19893388
0.17540957 -0.20576923 -0.011976973 -0.0004514289 -0.03810362 -0.13029227 -0.14758873 -0.07153223
-0.037053913 0.11182743 0.11378396 0.2145184 0.024175506 -0.2241942 -0.19049944 0.38104248
-0.017933924 0.15191811 0.26990628 0.099970505 -0.09809394 0.034049362 0.021162312 -0.15771526
0.14260684 0.14124629 0.08658653 0.17344248 0.011325148 0.026930412 0.25131935 -8.984519e-21
0.14844415 0.0023109405 0.011805943 0.22372146 -0.113649115 -0.0701193 -0.020789042 -0.13358158

dense_1.weight f4 [32, 64]
00000000: 2276 16be 1f8c 0cbe 619e 61be d9db 1a3e
00000010: 3eac 0bbe f98a dcbd af63 05be fa0b 083e
00000020: ef8c a73e 79fc ddbe 6766 7cbe e9af 413c
00000030: 8001 0f3d 7bb7 96be b81e c13d 18a6 3d3d
00000040: f75c 3ebe 57cd 00bd 9af5 adbe 68ee 75be
00000050: 6118 2c3e 9b58 d23b 8d76 41be 650c 5b3e
00000060: 5789 803d 4a81 b3bc 587b aa3c 7aa1 eb3d
00000070: 63db abbd 454d 0dbe e435 25bd 97b4 b3be
00000080: cc97 74bd 1572 293d d2bd b2bd e34a 03bd
00000090: e2f8 b23d e16e 83bd 10f6 b9bd 41d0 193d
000000a0: 1530 c4bd f0c1 9f3e 250d 72be a1dd 53bd
000000b0: 16cf 88bd 05de 873b 8f7f c63c f761 4abe
000000c0: e8c5 ae3c 9f26 babd 6bb2 2fbe 64ab f13d
000000d0: 8a91 05be 5d96 e2bc 4656 8e3d 5756 0800
000000e0: 7e5f ccbd f17c 3d3d f310 e3bd f19c cb3d
000000f0: e8cf 02be 5d99 2d3e efb3 d6bd de57 4c3d
00000100: e036 48be fff5 86be 162a 7abd ab9f 5c3e
00000110: 504b ba3e ddaf 273e 4346 a13c 824d b9be
00000120: f50e f33d 0191 db3c b7b2 fabe 1898 9c3d
00000130: 4f43 83be 5a59 bcbc be8b aa3e c648 31be
00000140: 3e5d bf3d 644d 80be 6d38 2b3d 164d 5c3e
00000150: f591 d9be 77ba bb3d d685 b13d 763e 98bd
00000160: 6404 6bbe b43d 70bd ac76 30bd 9fbc a6be
00000170: 78bb 053d 87e6 23be e9a4 8bbd 7708 94be
00000180: 51e6 70bd 6988 313e 58e9 b83e 3710 293d
00000190: 5626 e0be 4784 63be 47d1 683d 0041 2c3d
000001a0: 0f97 1a3e 3bd7 303f 9c07 123d 4a50 8abc
000001b0: 1b02 f2bd b4c3 df3b 244a 483e 64d6 2d3e
000001c0: b428 9abd f381 f53d 7e98 9bbe 094e d5bd
000001d0: aa78 54bf 8b07 7e3e c0fd 3d3e 1c13 e1ad
000001e0: da94 6a3e 8fc4 463e 2804 123e 8560 013f
000001f0: 1076 1ebd 8d89 e5bd fc2a 58bc 381b a73d
00000200: 14ab aabd b07f aabd 08d1 80be ce57 303e
00000210: ad27 89be 185e b63e fe6b bbbc 57be 3f3e
00000220: f63b 05be 6640 6a3e ab48 fe3e bd49 d23c
00000230: afe6 973e 0aeb 5f3e d73c eb3d 1693 bbbd
00000240: 42c1 16bf 89f6 6bbe 7d85 dabe 1e25 333e
00000250: e083 2a3f a3b3 773d 78a1 603d af55 c13e
00000260: faf0 ea3e c56e 15be f2c5 d93d 9266 3abe
00000270: 5419 513d ca50 88bd 1dd1 073e 515d 61be
00000280: 01c1 0fbe 9b1e 4cbe 4215 28be 5f34 013e
00000290: 0caa d63e ac9e 983e 722d e33d 3ec4 90be
000002a0: 3ae8 183d 5af1 71be 8384 3bbc 9339 573e
000002b0: 2b5c 223e efea 4abd 8e21 ddbd b7d9 903d
000002c0: fbb7 f9be 4235 4b3e 973a f8bd 767b 84bb
000002d0: 1435 923e dd71 bf3d 2109 d4bd f329 0280
000002e0: 6465 4dbe e6e4 09be 229c 83be 0029 01bf
000002f0: dded 9cbe 745b 863e 2e8e 68bd 5486 1f3d
00000300: 17a6 903e dbc0 65be 173d 683e 405b 8f3e
00000310: 46f1 0b3f 381c 0e3e 8435 6f3e 4c37 2bbe
00000320: 3b2d a13c c6d3 73bd 2c51 a2be bea6 39bc
00000330: 699c 173e 4a7d 7dbd acb7 323d 94fe f0bd
00000340: c37b e5bc 0e01 83be e725 0c3e d84c 57bd
00000350: 1604 85be 9a27 2f3e fe6b 47be 5650 5bbd
00000360: e7c7 353e 0c02 5bbd 38d3 03bd 7e6c 753e
00000370: 2ef0 68bd f61c 4a3e f3d3 9cbc 6589 75be
00000380: 15ec e43e 1117 a43e 1608 103e a5df b6bd
00000390: fb2b 0dbf 69a4 08bf 1d14 aebd 6ac8 2c3e
000003a0: b383 a53c 2623 0fbe b15f 043e 2f4f 5ebd
000003b0: 052b 80bc d24e a7bc 3365 8a3d 0d19 c5be
000003c0: c1e8 7a3e d557 5d3e 5e08 eabd 3882 ac3e
000003d0: 34fa 47bd 1a90 b23d 35a3 043f 4eec 11ac
000003e0: 7f02 983e cad2 0e3f 3d05 153e f0ed 563e
000003f0: c8e3 0bbd 763b 84be 5406 99bc 682b 48be
-0.14693502 -0.13725327 -0.22033073 0.15122928 -0.13639924 -0.107686944 -0.13026308 0.13285819
0.3272471 -0.43356684 -0.24648438 0.011821725 0.03491354 -0.2943686 0.09429687 0.046300977
-0.18590151 -0.031445827 -0.33976442 -0.24016726 0.16806175 0.006419254 -0.1889288 0.21391447
0.062761955 -0.021912236 0.020810768 0.115054086 -0.08391454 -0.13799007 -0.040334597 -0.35098717
-0.059715077 0.041368563 -0.087276116 -0.03205384 0.08738877 -0.06417633 -0.09080136 0.037552122
-0.095794834 0.3120265 -0.23637827 -0.051725034 -0.066801235 0.00414634 0.024230747 -0.19763933
0.021334603 -0.09089398 -0.17157905 0.11800268 -0.130438 -0.02765959 0.06950049 7.65657e-40
-0.09979151 0.04626173 -0.11087217 0.099420436 -0.12774622 0.16953035 -0.10483538 0.049888484
-0.19552183 -0.26359555 -0.061075293 0.21545283 0.36385584 0.1637568 0.019686824 -0.36191946
0.11868087 0.026802542 -0.48964474 0.07646197 -0.2563729 -0.022991825 0.3330974 -0.17312917
0.093439564 -0.25059044 0.04180186 0.21513781 -0.4249417 0.09166425 0.08668105 -0.074337885
-0.22950894 -0.058652595 -0.043081924 -0.3256578 0.032649487 -0.16005908 -0.068185635 -0.28912708
-0.058813397 0.17337193 0.36115527 0.04127523 -0.43779248 -0.22218429 0.056840207 0.042054176
0.15096687 0.69078416 0.035651788 -0.016883988 -0.11816808 0.0068287496 0.19559532 0.16976315
-0.07527295 0.119876765 -0.3038978 -0.10415275 -0.8299662 0.24807565 0.18553829 -2.5588025e-11
0.22908345 0.19410919 0.14259398 0.505379 -0.038686812 -0.11207876 -0.013193842 0.081594884
-0.08333412 -0.08325136 -0.25159478 0.17220995 -0.26788083 0.35618663 -0.022878643 0.18724953
-0.13011155 0.22876129 0.49664816 0.025669927 0.29668185 0.21867004 0.11486214 -0.09158914
-0.5888864 -0.23043264 -0.42679968 0.17494628 0.66607475 0.06047405 0.05484149 0.37760684
0.45886976 -0.14593036 0.10633458 -0.1820319 0.051049545 -0.06656034 0.13263364 -0.22008254
-0.14038469 -0.1993355 -0.16414359 0.12617634 0.4192661 0.29808557 0.110926524 -0.2827472
0.037330844 -0.23627225 -0.0114451675 0.21018057 0.15855472 -0.049540456 -0.10797416 0.07072776
-0.48773178 0.19844535 -0.1212055 -0.004043038 0.2855612 0.093478896 -0.10353304 -1.9872e-40
-0.20058209 -0.13466224 -0.25705057 -0.50453186 -0.30650225 0.26241648 -0.056776218 0.038946465
0.28251716 -0.2243685 0.22679554 0.27999306 0.5466503 0.13877952 0.23360258 -0.16720313
0.019674888 -0.059528135 -0.31702554 -0.011331258 0.1480576 -0.061887063 0.043632194 -0.11767307
-0.028013116 -0.25586742 0.13686334 -0.05256352 -0.2597968 0.1710495 -0.1947479 -0.05354341
0.17752038 -0.05346875 -0.032183856 0.23967168 -0.05686968 0.1973761 -0.019144034 -0.23978193
0.44711366 0.32048848 0.14065585 -0.089293756 -0.55145234 -0.5337587 -0.0849993 0.16873327
0.0202044 -0.13978252 0.12927128 -0.054274734 -0.015645513 -0.020423327 0.067575835 -0.38495675
0.24502851 0.21615537 -0.11427377 0.336931 -0.048822597 0.087188914 0.51811534 -2.0736915e-12
0.29689404 0.5579039 0.1455278 0.20989203 -0.034152776 -0.25826615 -0.018679775 -0.19547808

dense_1.bias f4 [32]
00000000: e4fc 06bd 577d 6c3e 9491 653d aad7 e53e
00000010: 377d 6dbd 9f82 593e 858d a4bc 2e19 4b3e
00000020: b0ad ddbd 7009 1b3d 321d dcbd 8ec9 f33d
00000030: 8022 253e c95e 83bd ec4e 28bd fde7 673d
00000040: 24c7 f03d 8401 863e bedd 8c3e 1198 96bc
00000050: 4fa8 ebbc c915 963c 3e12 8a3e b5fd 9a3d
00000060: 99d7 28be 88fa 823d 1bcd 333c 1338 333e
00000070: 958d 833e 8b5b 73bd 8374 703d fc00 3d3e
-0.03295602 0.23094688 0.056047037 0.448911 -0.057980742 0.21241234 -0.020087013 0.19833824
-0.10824144 0.037850797 -0.10747756 0.11903678 0.16126442 -0.06414563 -0.04109089 0.056617726
0.11756733 0.2617303 0.27512926 -0.018383058 -0.02876678 0.018320935 0.26967043 0.07567922
-0.16488494 0.06395441 0.010974194 0.1750186 0.25693956 -0.059413474 0.058704864 0.18457407

dense_2.weight f4 [16, 32]
00000000: 4950 48bc 953e c3bd b70f 003e 7a6a 883c
00000010: 5b0a 183f 932f 173e 9d59 abbe 2c75 923e
00000020: 7222 53bd 0840 2abe 1c54 533d 8b9d 3d3e
00000030: 799c 9dbe 7eda ea3e 57e1 5cbd 7f0a 4bba
00000040: 0a4f 1d3e d91c e23e f666 79be 25e8 c33d
00000050: 3068 10bd 50cf 263e e714 47be 490e 19be
00000060: f4f6 693c b393 6d3e 4961 ae3c 8b14 bbbd
00000070: a0fb d13e f1a2 d53e dced 763e 6450 1dbe
00000080: b16a 2ebd b0a4 a53c b74f 1dbd 5f9f 0abd
00000090: fd25 16bd 10f7 48bd 7586 96bc 023c 6dbc
000000a0: 8cfb 39bb 722c 143d f833 c83c 87cd 86bd
000000b0: 23d9 23bc 1c50 94bd 7015 48bd f793 943c
000000c0: d680 f3bd 098a 4a3c af60 6cbc bf5e 89ba
000000d0: e97b d83b 3aa3 113c cc06 f43c 604d ed3a
000000e0: 7a1e b7bd 65d9 bdbc 99ef 5b3d c4bf 8e3c
000000f0: f1f1 09bd 277c 5abd 625c a1bd 05f0 e63c
00000100: 7312 613e 9614 8c3e 146e f7bd f60d f03e
00000110: 5dc1 833e 5dc8 653e 005f 30be 10cb 8b3e
00000120: cb5a 95be 3132 a7bd c4bb 77be 424c 723d
00000130: 9ec2 60be c24f a8be 30f3 98be c2d6 d63d
00000140: de89 c43d 809b 573e b796 ce3e d06b f5bd
00000150: 4f8e 8bbe 5fcc 9fbd 4810 5f3e 5e40 b23e
00000160: 1fe8 f73c ceab 123e c1b0 c6be eb33 0d3e
00000170: f590 f33e e85d 9ebd 3dc8 b5be 2656 983e
00000180: 4e3c 513e bd7b dabe dcd1 c43e 0adb 21be
00000190: 03c2 493e 92c1 563e eb64 a53d a7b3 10be
000001a0: fc40 223d a1ba a63e ba49 323e 79b2 86bc
000001b0: 7aaa 45bd 436c a83d 62ac 163f af70 c23c
000001c0: 68cb 20be 0ed6 633e c605 ccbd aea6 913e
000001d0: d537 b43e 22f9 febd efb8 953e de86 13bf
000001e0: 9243 953e aeb3 88be cff0 9abb b01f c3be
000001f0: 6bb4 493d 51b6 ea3e 2396 f13c 82ca 5c3e
00000200: 3942 8a3d 7867 1c3e ea95 72be b15c 16bc
00000210: e8e7 67be ab70 a6bb 62d6 2fbe 6ddf 65be
00000220: 6f5c 82be be43 f83d 6171 5e3e bc3c 923e
00000230: 54c2 973e 91db e73e ca34 cf3e 92a9 943e
00000240: 8e34 bc3e 9be0 b4be eb64 5d3e 4ee1 243e
00000250: 9891 9dbe f161 aa3e 0ac6 52bd 5b2e 933e
00000260: 30b1 7a3e e373 dd3e 3e7c bbbe 94eb 1b3f
00000270: f973 a2be e076 45bd 796e e03e 9e29 92be
00000280: 8f66 ad3e f298 183f 45ef dd3d d03e 153e
00000290: 69ed 2dbe 3854 113e 3703 b8bc d1fa dfbe
000002a0: a919 bc3d 5a0f 393e 9bf3 bbbd be8b 9ebd
000002b0: 94bd 9cbd 7030 14be 64b2 c9be df13 4c3e
000002c0: 17e2 473e afa9 a93e 93ee 323e 8756 f63d
000002d0: f150 c33a 619a 95be d807 913e 11d7 623e
000002e0: 293e eebd ffb7 8e3d 8569 653d d1f9 12be
000002f0: 2a9f 06bf c696 163e 1865 d43e a699 733e
00000300: 822e fa3d b57d 1c3c fcec 913e 5839 41be
00000310: 5c66 283b c85e efbe adfa 4fbe f4c6 eb3d
00000320: a0e9 173d 7920 0abf 5f8f 473e 552f 293d
00000330: a443 bcbd d0d2 8b3e 25ca 10bf 8ccd cabe
00000340: 23f7 86bb 139f 893e 36c1 e5be 9842 7cbe
00000350: 60f1 2e3e 5e29 353e 7a2c c6be aee1 643e
00000360: 4cbf 3ebd a22c f23d 9f21 123e e5fe f3be
00000370: 28b7 14be 234b 993d 3a35 543e 7fc7 b73d
00000380: 0a10 b3bc 2b10 02be 6131 123f 9ec2 133e
00000390: 05cd ed3d 2f6f 4a3e 2779 f53e f8cb 2abe
000003a0: 94be cc3e 122c 953e 0e43 b53e 10ce 18bc
000003b0: d7f9 f13e 442e b6be 58ae 483e 1262 823c
000003c0: 5b9c 3cbe a333 523c e99e cfbd 4240 4d3e
000003d0: 0989 983e f74a b13d f3f6 4dbd a399 1cbe
000003e0: 85e0 b53c 5938 b23d bcec 02be db45 b7be
000003f0: 3b3f 86be 56c8 5cbe 230a b0be 1aed 9e3e
-0.012226173 -0.09533421 0.12505995 0.016652334 0.593908 0.14764242 -0.33466807 0.2860502
-0.05154652 -0.16625988 0.051593885 0.18517129 -0.30783442 0.4586982 -0.05392584 -0.00077453995
0.15362182 0.44162634 -0.24355683 0.095657624 -0.03525561 0.16290021 -0.19441567 -0.14946856
0.01428007 0.23200874 0.021286624 -0.09134778 0.41012287 0.41725877 0.24114174 -0.15362698
-0.042582218 0.02022013 -0.0384061 -0.033843394 -0.036657322 -0.049063742 -0.018374661 -0.014479639
-0.0028378693 0.0361752 0.024438843 -0.0658217 -0.0100005 -0.07241842 -0.04884857 0.018136961
-0.11889808 0.012362012 -0.014427348 -0.0010480507 0.006606568 0.008889014 0.029788397 0.0018104725
-0.0894136 -0.02317495 0.053695295 0.017425425 -0.033678 -0.053341057 -0.07878949 0.028190622
0.21979694 0.27359456 -0.120815426 0.4688565 0.25733462 0.22439714 -0.1722374 0.27303362
-0.29170832 -0.0816387 -0.2419272 0.059154756 -0.2194924 -0.3287335 -0.29873037 0.104901806
0.095966086 0.21055412 0.4034936 -0.11983454 -0.2725701 -0.078026526 0.21783555 0.34814733
0.030262051 0.14323351 -0.38806728 0.13789336 0.4757153 -0.07732755 -0.35504332 0.29753226
0.2043316 -0.4267253 0.3844136 -0.15806213 0.19702916 0.20972279 0.08075889 -0.14131032
0.039612755 0.32564262 0.17410937 -0.016442524 -0.048258282 0.08223774 0.58856785 0.023735372
-0.15702593 0.22249624 -0.09962039 0.2844748 0.35198846 -0.12449862 0.29242656 -0.57627666
0.29153115 -0.26699585 -0.0047284137 -0.38110113 0.049244326 0.4584222 0.029490536 0.21561626
0.06750912 0.15273845 -0.2369 -0.009177373 -0.22647059 -0.005079349 -0.17171624 -0.22448511
-0.25461146 0.12122296 0.21722938 0.28561962 0.29640448 0.45284703 0.40469962 0.29035622
0.36758846 -0.3532761 0.21620528 0.16101572 -0.30775142 0.33277848 -0.051458396 0.28746304
0.24481654 0.43252477 -0.36618227 0.6090634 -0.31729105 -0.04820907 0.43834284 -0.28547376
0.33867308 0.59608376 0.10836653 0.14574742 -0.16985096 0.14192283 -0.02246247 -0.43746045
0.09184582 0.18072262 -0.091773234 -0.077414975 -0.07653347 -0.14471602 -0.39393914 0.19929455
0.1951984 0.3313727 0.17473821 0.120282225 0.0014901442 -0.29219344 0.28326297 0.22152354
-0.1163295 0.06968688 0.056008834 -0.1435311 -0.52586615 0.14705953 0.41483378 0.23789081
0.12215902 0.009551455 0.28501117 -0.18869531 0.0025695777 -0.46752 -0.20310469 0.11512557
0.037088037 -0.539558 0.19488285 0.041304905 -0.09192589 0.27309275 -0.5655845 -0.39609945
-0.0041188165 0.26879176 -0.4487397 -0.24634778 0.17084265 0.17691562 -0.38705808 0.22351715
-0.046569154 0.11824919 0.14270638 -0.47655407 -0.14522994 0.07485034 0.2072343 0.08973598
-0.021858234 -0.1270148 0.57106596 0.1442971 0.1161137 0.19768976 0.47943994 -0.1667937
0.3998915 0.29135185 0.3540272 -0.009326473 0.47260925 -0.35582173 0.19597757 0.015915904
-0.1841902 0.012829694 -0.101377316 0.20044044 0.2979205 0.086568765 -0.050284337 -0.15292983
0.022201786 0.08702154 -0.1278562 -0.35795483 -0.26220116 -0.21560797 -0.34382734 0.3104027

dense_2.bias f4 [16]
00000000: 0478 e8bd 75e3 38bc 6f92 f73e 3140 febc
00000010: b49d 943d 4c13 163e 3ce6 093e 7f54 273e
00000020: c836 db3d 30f4 943e 5e62 133c 0490 6ebd
00000030: bc27 5c3e 2cec 7f3d 8343 953e 18e6 a33e
-0.11351016 -0.011284699 0.48353907 -0.031036468 0.07256642 0.14655799 0.13466734 0.16340826
0.10703808 0.2909255 0.0089956205 -0.058242813 0.21499532 0.06248109 0.2915307 0.32011485

dense_3.weight f4 [10, 16]
00000000: eb5e dd3e c2cc 96bc bec1 86bd 859f 20be
00000010: 4942 04bf 39ae 8abb 3621 e43e e16d 60be
00000020: f638 99be 3a91 a03d 6586 56be 017a 153d
00000030: 8e00 01bf de1c 943e b824 1abf d712 f7be
00000040: 1328 4abe bd5f 713d a0d8 9fbd 29ee c9bd
00000050: ee84 fa3e 59da bfbe 53d5 bcbe 7bbc c43d
00000060: b32d 34be 6ae0 203e c88a 013f 8620 f3bc
00000070: 586e cc3e 5e89 0dbf e2ee a5be 36ff 4ebe
00000080: 227c 0c3e 2609 98bb ecaf f5be 9f4c 483e
00000090: 19e3 833e 7714 8d3e deb8 28bf 6e3a 33be
000000a0: 4830 d33e 11da edbe 60ae fbbe d3bd 563c
000000b0: b46c a8bd 5498 073d 6cce 693e c73c c9be
000000c0: e939 65be 7cec cabc 4b1f a2be 5b1b 9f3e
000000d0: 2c4d 00bf 49d2 84bd 4f74 33bf f773 0f3e
000000e0: a8fe c43e a2b7 29be 9d9e 833e f8d1 85bc
000000f0: f5e8 13bf 8592 dfbc 3e14 e43d 4e91 183e
00000100: f511 1dbe 9505 12bc a42f 583e cc7e ffbe
00000110: 8a3a 7b3e eac9 c0bd 989a 0abf f52e 28bf
00000120: c907 ddbc dcba cabe 9e9d db3d 8dae 43bd
00000130: 666f 853e 2ece b23e 2c56 423e 78d8 573e
00000140: aede c8be b5c8 21bd 7e55 533e d1dd 01be
00000150: 9740 a6be 0489 843d abb3 81be c338 fe3c
00000160: 292c 94bd 39e0 063f 5917 d4be 4c6e afbc
00000170: 8cd6 16be f2e0 4abe 676d 1d3e c2a9 c23e
00000180: 2d17 d53e af18 393d ea05 e63e 8d85 ffbe
00000190: 1abc 22be 4952 90bb 37b0 efbd ca7c 13bf
000001a0: 221b 783c 4534 083e 88bf f2be f3b4 f6bc
000001b0: 03cf 853e 5d4f 01bf ee08 dabe 698a 53be
000001c0: beba b8bd 360a 43bd 226c 12bf 8412 933d
000001d0: 7a0b 723d 665b 17bf d390 1abf 4510 c13e
000001e0: f53a c7be 4e20 84be 52f6 3dbe fa8e 8b3b
000001f0: f2d5 ae3e 4532 9a3e eba9 353e c656 cbbe
00000200: 22ca d8bc d643 86bd f22a e93e 67ec 913e
00000210: 0ba8 20be 654e b73e ada6 ebbc 515b 063e
00000220: 7a38 bfbe 8857 0abf 7635 1d3d 3934 aa3c
00000230: 8883 4abe 1098 e4be 611e 883e f618 dabd
00000240: 3302 04bf 0850 243d ecea b0bd c836 02bf
00000250: b559 843e f7b0 e83e b0c2 e5bd 999e 5a3e
00000260: 2e84 02bf 909e 9bbd f4db 3d3e da9a 89bc
00000270: 0769 dabe 5373 b73e 7249 683d 8c41 38bd
0.4323648 -0.018408183 -0.06579922 -0.15685852 -0.51663643 -0.0042321947 0.44556588 -0.21916915
-0.2992627 0.078402 -0.20949705 0.036493305 -0.5039147 0.28928274 -0.6021228 -0.4825656
-0.1974185 0.058929194 -0.0780499 -0.098598786 0.48929542 -0.37471274 -0.36881503 0.09606262
-0.17595558 0.15710607 0.5060239 -0.029678594 0.39927936 -0.5528773 -0.32408816 -0.20214543
0.13719228 -0.0046397625 -0.4798578 0.19560479 0.257592 0.27554676 -0.65907085 -0.17502758
0.41247773 -0.46455434 -0.49156475 0.013106781 -0.082238585 0.033104256 0.2283265 -0.39304182
-0.22385372 -0.024770968 -0.316645 0.31075558 -0.50117755 -0.06485421 -0.7009935 0.14009081
0.38475537 -0.16573957 0.2570695 -0.016335472 -0.5777734 -0.027291546 0.111366734 0.1489918
-0.15338881 -0.008912464 0.21111923 -0.49901426 0.2453405 -0.09413512 -0.5414214 -0.6569665
-0.026981251 -0.39595687 0.107234225 -0.047773886 0.26061553 0.34922928 0.18978184 0.2107867
-0.3923239 -0.03949805 0.20638081 -0.12682272 -0.32471153 0.06471446 -0.25332388 0.031032925
-0.072349854 0.52685887 -0.41424063 -0.021414898 -0.1473028 -0.19812372 0.15373765 0.3802014
0.41619244 0.045189556 0.44926387 -0.4990658 -0.15892068 -0.0044043404 -0.11703532 -0.5761229
0.015143188 0.13301189 -0.47411752 -0.03011558 0.261345 -0.50511724 -0.42584938 -0.20658268
-0.09019993 -0.04761716 -0.5719625 0.07181266 0.059092976 -0.5912384 -0.60377234 0.37707725
-0.38912168 -0.25805897 -0.18550995 0.0042589875 0.34147602 0.30116478 0.177406 -0.3971464
-0.026463572 -0.065559074 0.45540577 0.28500673 -0.15689103 0.35801998 -0.028766 0.13120772
-0.37347776 -0.5403981 0.038381062 0.020776855 -0.19776738 -0.44647264 0.26585677 -0.10649292
-0.51565856 0.040115386 -0.08638558 -0.5086484 0.2584969 0.45447513 -0.11218774 0.21349563
-0.5098294 -0.07598603 0.18540937 -0.016797472 -0.42658255 0.35830173 0.056710668 -0.044984385

dense_3.bias f4 [10]
00000000: a1ec f23d d346 3c3e 86cf 0f3e ce51 ebbd
00000010: 7430 b7bd 2143 2f3e 60ad 55bd a8b5 69be
00000020: 8bb2 cb3e 60f3 a13d
0.1186154 0.18386392 0.14044008 -0.114902124 -0.089447886 0.17115451 -0.052167296 -0.22823203
0.39784655 0.07907748
